2024-08-02 15:13:15,924:INFO:Grelen(
  (graph_learner): Graph_learner(
    (mlp1): MLP(
      (fc1): Linear(in_features=30, out_features=64, bias=True)
      (fc2): Linear(in_features=64, out_features=64, bias=True)
      (bn): BatchNorm1d(64, eps=1e-05, momentum=0.1, affine=True, track_running_stats=True)
    )
    (Wq): Linear(in_features=64, out_features=128, bias=True)
    (Wk): Linear(in_features=64, out_features=128, bias=True)
  )
  (linear1): Linear(in_features=1, out_features=64, bias=True)
  (encoder_model): ModuleList(
    (0-2): 3 x EncoderModel(
      (dcgru_layers): ModuleList(
        (0): DCGRUCell_(
          (_gconv_0): Linear(in_features=384, out_features=128, bias=True)
          (_gconv_1): Linear(in_features=384, out_features=128, bias=True)
          (_gconv_c_0): Linear(in_features=384, out_features=64, bias=True)
          (_gconv_c_1): Linear(in_features=384, out_features=64, bias=True)
        )
      )
    )
  )
  (linear_out): Linear(in_features=64, out_features=1, bias=True)
)
2024-08-02 15:13:20,600:INFO:epoch: 0, validation loss: 8.02
2024-08-02 15:13:20,614:INFO:save parameters to file: experiments/swat_test/epoch_0.params
2024-08-02 15:13:42,774:INFO:epoch: 0, kl loss: 0.76, nll loss: 0.79
2024-08-02 15:13:46,220:INFO:epoch: 1, validation loss: 0.76
2024-08-02 15:13:46,228:INFO:save parameters to file: experiments/swat_test/epoch_1.params
…
