2024-10-09 19:38:48,574 - root - INFO - train: torch.Size([4195, 51, 1, 30]), torch.Size([4195, 51, 1, 30])
2024-10-09 19:38:48,575 - root - INFO - val: torch.Size([1027, 51, 1, 30]), torch.Size([1027, 51, 1, 30])
2024-10-09 19:38:48,576 - root - INFO - 训练集文件data/SWAT/train_swat_gcn.npz
2024-10-09 19:38:48,607 - root - INFO - Grelen(
  (graph_learner): Graph_learner(
    (mlp1): MLP(
      (fc1): Linear(in_features=30, out_features=64, bias=True)
      (fc2): Linear(in_features=64, out_features=64, bias=True)
      (bn): BatchNorm1d(64, eps=1e-05, momentum=0.1, affine=True, track_running_stats=True)
    )
    (Wq): Linear(in_features=64, out_features=128, bias=True)
    (Wk): Linear(in_features=64, out_features=128, bias=True)
  )
  (linear1): Linear(in_features=1, out_features=64, bias=True)
  (encoder_model): ModuleList(
    (0-2): 3 x EncoderModel(
      (gcn_layers): ModuleList(
        (0): SoftPoolingGcnEncoder(
          (conv_first): GraphConv()
          (conv_block): ModuleList(
            (0): GraphConv()
          )
          (conv_last): GraphConv()
          (act): ReLU()
          (pred_model): Sequential(
            (0): Linear(in_features=384, out_features=50, bias=True)
            (1): ReLU()
            (2): Linear(in_features=50, out_features=2, bias=True)
          )
          (conv_first_after_pool): ModuleList(
            (0): GraphConv()
          )
          (conv_block_after_pool): ModuleList(
            (0): ModuleList(
              (0): GraphConv()
            )
          )
          (conv_last_after_pool): ModuleList(
            (0): GraphConv()
          )
          (assign_conv_first_modules): ModuleList(
            (0): GraphConv()
          )
          (assign_conv_block_modules): ModuleList(
            (0): ModuleList(
              (0): GraphConv()
            )
          )
          (assign_conv_last_modules): ModuleList(
            (0): GraphConv()
          )
          (assign_pred_modules): ModuleList(
            (0): Linear(in_features=140, out_features=12, bias=True)
          )
        )
      )
      (projection_layer): Linear(in_features=2, out_features=3264, bias=True)
    )
  )
  (linear_out): Linear(in_features=64, out_features=1, bias=True)
)
2024-10-09 19:39:15,874 - root - INFO - train: torch.Size([4195, 51, 1, 30]), torch.Size([4195, 51, 1, 30])
2024-10-09 19:39:15,875 - root - INFO - val: torch.Size([1027, 51, 1, 30]), torch.Size([1027, 51, 1, 30])
2024-10-09 19:39:15,877 - root - INFO - 训练集文件data/SWAT/train_swat_gcn.npz
2024-10-09 19:39:15,907 - root - INFO - Grelen(
  (graph_learner): Graph_learner(
    (mlp1): MLP(
      (fc1): Linear(in_features=30, out_features=64, bias=True)
      (fc2): Linear(in_features=64, out_features=64, bias=True)
      (bn): BatchNorm1d(64, eps=1e-05, momentum=0.1, affine=True, track_running_stats=True)
    )
    (Wq): Linear(in_features=64, out_features=128, bias=True)
    (Wk): Linear(in_features=64, out_features=128, bias=True)
  )
  (linear1): Linear(in_features=1, out_features=64, bias=True)
  (encoder_model): ModuleList(
    (0-2): 3 x EncoderModel(
      (gcn_layers): ModuleList(
        (0): SoftPoolingGcnEncoder(
          (conv_first): GraphConv()
          (conv_block): ModuleList(
            (0): GraphConv()
          )
          (conv_last): GraphConv()
          (act): ReLU()
          (pred_model): Sequential(
            (0): Linear(in_features=384, out_features=50, bias=True)
            (1): ReLU()
            (2): Linear(in_features=50, out_features=2, bias=True)
          )
          (conv_first_after_pool): ModuleList(
            (0): GraphConv()
          )
          (conv_block_after_pool): ModuleList(
            (0): ModuleList(
              (0): GraphConv()
            )
          )
          (conv_last_after_pool): ModuleList(
            (0): GraphConv()
          )
          (assign_conv_first_modules): ModuleList(
            (0): GraphConv()
          )
          (assign_conv_block_modules): ModuleList(
            (0): ModuleList(
              (0): GraphConv()
            )
          )
          (assign_conv_last_modules): ModuleList(
            (0): GraphConv()
          )
          (assign_pred_modules): ModuleList(
            (0): Linear(in_features=140, out_features=12, bias=True)
          )
        )
      )
      (projection_layer): Linear(in_features=2, out_features=3264, bias=True)
    )
  )
  (linear_out): Linear(in_features=64, out_features=1, bias=True)
)
2024-10-09 19:40:17,497 - root - INFO - train: torch.Size([4195, 51, 1, 30]), torch.Size([4195, 51, 1, 30])
2024-10-09 19:40:17,498 - root - INFO - val: torch.Size([1027, 51, 1, 30]), torch.Size([1027, 51, 1, 30])
2024-10-09 19:40:17,499 - root - INFO - 训练集文件data/SWAT/train_swat_gcn.npz
2024-10-09 19:40:17,525 - root - INFO - Grelen(
  (graph_learner): Graph_learner(
    (mlp1): MLP(
      (fc1): Linear(in_features=30, out_features=64, bias=True)
      (fc2): Linear(in_features=64, out_features=64, bias=True)
      (bn): BatchNorm1d(64, eps=1e-05, momentum=0.1, affine=True, track_running_stats=True)
    )
    (Wq): Linear(in_features=64, out_features=128, bias=True)
    (Wk): Linear(in_features=64, out_features=128, bias=True)
  )
  (linear1): Linear(in_features=1, out_features=64, bias=True)
  (encoder_model): ModuleList(
    (0-2): 3 x EncoderModel(
      (gcn_layers): ModuleList(
        (0): SoftPoolingGcnEncoder(
          (conv_first): GraphConv()
          (conv_block): ModuleList(
            (0): GraphConv()
          )
          (conv_last): GraphConv()
          (act): ReLU()
          (pred_model): Sequential(
            (0): Linear(in_features=384, out_features=50, bias=True)
            (1): ReLU()
            (2): Linear(in_features=50, out_features=2, bias=True)
          )
          (conv_first_after_pool): ModuleList(
            (0): GraphConv()
          )
          (conv_block_after_pool): ModuleList(
            (0): ModuleList(
              (0): GraphConv()
            )
          )
          (conv_last_after_pool): ModuleList(
            (0): GraphConv()
          )
          (assign_conv_first_modules): ModuleList(
            (0): GraphConv()
          )
          (assign_conv_block_modules): ModuleList(
            (0): ModuleList(
              (0): GraphConv()
            )
          )
          (assign_conv_last_modules): ModuleList(
            (0): GraphConv()
          )
          (assign_pred_modules): ModuleList(
            (0): Linear(in_features=140, out_features=12, bias=True)
          )
        )
      )
      (projection_layer): Linear(in_features=2, out_features=3264, bias=True)
    )
  )
  (linear_out): Linear(in_features=64, out_features=1, bias=True)
)
2024-10-09 19:40:23,069 - root - INFO - epoch: 0, validation loss: 5.09
2024-10-09 19:40:23,079 - root - INFO - save parameters to file: experiments/swat_test/epoch_0.params
2024-10-09 19:40:54,825 - root - INFO - epoch: 0, kl loss: 0.65, nll loss: 2.25
2024-10-09 19:40:54,825 - root - INFO - start epoch:0,elapsed time:37.29948854446411,total time:37.29948854446411
…
