2024-09-26 09:25:42,976 - root - INFO - train: torch.Size([4195, 51, 1, 30]), torch.Size([4195, 51, 1, 30])
2024-09-26 09:25:42,977 - root - INFO - val: torch.Size([1027, 51, 1, 30]), torch.Size([1027, 51, 1, 30])
2024-09-26 09:25:42,998 - root - INFO - Grelen(
  (graph_learner): Graph_learner(
    (mlp1): MLP(
      (fc1): Linear(in_features=30, out_features=64, bias=True)
      (fc2): Linear(in_features=64, out_features=64, bias=True)
      (bn): BatchNorm1d(64, eps=1e-05, momentum=0.1, affine=True, track_running_stats=True)
    )
    (Wq): Linear(in_features=64, out_features=128, bias=True)
    (Wk): Linear(in_features=64, out_features=128, bias=True)
  )
  (linear1): Linear(in_features=1, out_features=64, bias=True)
  (encoder_model): ModuleList(
    (0-2): 3 x EncoderModel(
      (dcgru_layers): ModuleList(
        (0): DCGRUCell_(
          (_gconv_0): Linear(in_features=384, out_features=128, bias=True)
          (_gconv_1): Linear(in_features=384, out_features=128, bias=True)
          (_gconv_c_0): Linear(in_features=384, out_features=64, bias=True)
          (_gconv_c_1): Linear(in_features=384, out_features=64, bias=True)
        )
      )
    )
  )
  (linear_out): Linear(in_features=64, out_features=1, bias=True)
)
2024-09-26 09:25:44,334 - root - INFO - 邻接矩阵的形状为torch.Size([4, 128, 51, 51])
2024-09-26 09:25:44,375 - root - INFO - DCGRUCell_类中的输入inputs形状为torch.Size([128, 51, 64])
2024-09-26 09:25:44,375 - root - INFO - DCGRUCell_类中的hx矩阵的形状为torch.Size([128, 3264])
2024-09-26 09:25:44,375 - root - INFO - DCGRUCell_类中的adj矩阵的形状为torch.Size([128, 51, 51])
2024-09-26 09:25:44,375 - root - INFO - 随机游走中的adj形状torch.Size([128, 51, 51])
…
