2024-10-14 17:10:37,979 - root - INFO - train: torch.Size([4195, 51, 1, 30]), torch.Size([4195, 51, 1, 30])
2024-10-14 17:10:37,979 - root - INFO - val: torch.Size([1027, 51, 1, 30]), torch.Size([1027, 51, 1, 30])
2024-10-14 17:10:37,980 - root - INFO - 训练集文件data/SWAT/train_swat_gcn.npz
2024-10-14 17:10:38,004 - root - INFO - Grelen(
  (graph_learner): Graph_learner(
    (mlp1): MLP(
      (fc1): Linear(in_features=30, out_features=64, bias=True)
      (fc2): Linear(in_features=64, out_features=64, bias=True)
      (bn): BatchNorm1d(64, eps=1e-05, momentum=0.1, affine=True, track_running_stats=True)
    )
    (Wq): Linear(in_features=64, out_features=128, bias=True)
    (Wk): Linear(in_features=64, out_features=128, bias=True)
  )
  (linear1): Linear(in_features=1, out_features=64, bias=True)
  (encoder_model): ModuleList(
    (0-2): 3 x EncoderModel(
      (gcn_layers): ModuleList(
        (0): SoftPoolingGcnEncoder(
          (conv_first): GraphConv()
          (conv_block): ModuleList(
            (0): GraphConv()
          )
          (conv_last): GraphConv()
          (act): ReLU()
          (pred_model): Sequential(
            (0): Linear(in_features=384, out_features=50, bias=True)
            (1): ReLU()
            (2): Linear(in_features=50, out_features=2, bias=True)
          )
          (conv_first_after_pool): ModuleList(
            (0): GraphConv()
          )
          (conv_block_after_pool): ModuleList(
            (0): ModuleList(
              (0): GraphConv()
            )
          )
          (conv_last_after_pool): ModuleList(
            (0): GraphConv()
          )
          (assign_conv_first_modules): ModuleList(
            (0): GraphConv()
          )
          (assign_conv_block_modules): ModuleList(
            (0): ModuleList(
              (0): GraphConv()
            )
          )
          (assign_conv_last_modules): ModuleList(
            (0): GraphConv()
          )
          (assign_pred_modules): ModuleList(
            (0): Linear(in_features=140, out_features=12, bias=True)
          )
        )
      )
      (projection_layer): Linear(in_features=2, out_features=3264, bias=True)
    )
  )
  (linear_out): Linear(in_features=64, out_features=1, bias=True)
  (soft_pooling_encoder): SoftPoolingGcnEncoder(
    (conv_first): GraphConv()
    (conv_block): ModuleList(
      (0): GraphConv()
    )
    (conv_last): GraphConv()
    (act): ReLU()
    (pred_model): Sequential(
      (0): Linear(in_features=384, out_features=50, bias=True)
      (1): ReLU()
      (2): Linear(in_features=50, out_features=2, bias=True)
    )
    (conv_first_after_pool): ModuleList(
      (0): GraphConv()
    )
    (conv_block_after_pool): ModuleList(
      (0): ModuleList(
        (0): GraphConv()
      )
    )
    (conv_last_after_pool): ModuleList(
      (0): GraphConv()
    )
    (assign_conv_first_modules): ModuleList(
      (0): GraphConv()
    )
    (assign_conv_block_modules): ModuleList(
      (0): ModuleList(
        (0): GraphConv()
      )
    )
    (assign_conv_last_modules): ModuleList(
      (0): GraphConv()
    )
    (assign_pred_modules): ModuleList(
      (0): Linear(in_features=140, out_features=12, bias=True)
    )
  )
)
2024-10-14 17:10:43,449 - root - INFO - epoch: 0, diffpool loss: 68.69
2024-10-14 17:10:43,461 - root - INFO - save parameters to file: experiments/swat_test/epoch_0.params
2024-10-14 17:18:59,135 - root - INFO - train: torch.Size([4195, 51, 1, 30]), torch.Size([4195, 51, 1, 30])
2024-10-14 17:18:59,135 - root - INFO - val: torch.Size([1027, 51, 1, 30]), torch.Size([1027, 51, 1, 30])
2024-10-14 17:18:59,136 - root - INFO - 训练集文件data/SWAT/train_swat_gcn.npz
2024-10-14 17:18:59,161 - root - INFO - Grelen(
  (graph_learner): Graph_learner(
    (mlp1): MLP(
      (fc1): Linear(in_features=30, out_features=64, bias=True)
      (fc2): Linear(in_features=64, out_features=64, bias=True)
      (bn): BatchNorm1d(64, eps=1e-05, momentum=0.1, affine=True, track_running_stats=True)
    )
    (Wq): Linear(in_features=64, out_features=128, bias=True)
    (Wk): Linear(in_features=64, out_features=128, bias=True)
  )
  (linear1): Linear(in_features=1, out_features=64, bias=True)
  (encoder_model): ModuleList(
    (0-2): 3 x EncoderModel(
      (gcn_layers): ModuleList(
        (0): SoftPoolingGcnEncoder(
          (conv_first): GraphConv()
          (conv_block): ModuleList(
            (0): GraphConv()
          )
          (conv_last): GraphConv()
          (act): ReLU()
          (pred_model): Sequential(
            (0): Linear(in_features=384, out_features=50, bias=True)
            (1): ReLU()
            (2): Linear(in_features=50, out_features=2, bias=True)
          )
          (conv_first_after_pool): ModuleList(
            (0): GraphConv()
          )
          (conv_block_after_pool): ModuleList(
            (0): ModuleList(
              (0): GraphConv()
            )
          )
          (conv_last_after_pool): ModuleList(
            (0): GraphConv()
          )
          (assign_conv_first_modules): ModuleList(
            (0): GraphConv()
          )
          (assign_conv_block_modules): ModuleList(
            (0): ModuleList(
              (0): GraphConv()
            )
          )
          (assign_conv_last_modules): ModuleList(
            (0): GraphConv()
          )
          (assign_pred_modules): ModuleList(
            (0): Linear(in_features=140, out_features=12, bias=True)
          )
        )
      )
      (projection_layer): Linear(in_features=2, out_features=3264, bias=True)
    )
  )
  (linear_out): Linear(in_features=64, out_features=1, bias=True)
  (soft_pooling_encoder): SoftPoolingGcnEncoder(
    (conv_first): GraphConv()
    (conv_block): ModuleList(
      (0): GraphConv()
    )
    (conv_last): GraphConv()
    (act): ReLU()
    (pred_model): Sequential(
      (0): Linear(in_features=384, out_features=50, bias=True)
      (1): ReLU()
      (2): Linear(in_features=50, out_features=2, bias=True)
    )
    (conv_first_after_pool): ModuleList(
      (0): GraphConv()
    )
    (conv_block_after_pool): ModuleList(
      (0): ModuleList(
        (0): GraphConv()
      )
    )
    (conv_last_after_pool): ModuleList(
      (0): GraphConv()
    )
    (assign_conv_first_modules): ModuleList(
      (0): GraphConv()
    )
    (assign_conv_block_modules): ModuleList(
      (0): ModuleList(
        (0): GraphConv()
      )
    )
    (assign_conv_last_modules): ModuleList(
      (0): GraphConv()
    )
    (assign_pred_modules): ModuleList(
      (0): Linear(in_features=140, out_features=12, bias=True)
    )
  )
)
2024-10-14 17:19:04,711 - root - INFO - epoch: 0, diffpool loss: 68.18
2024-10-14 17:19:04,724 - root - INFO - save parameters to file: experiments/swat_test/epoch_0.params
2024-10-14 17:20:07,990 - root - INFO - train: torch.Size([4195, 51, 1, 30]), torch.Size([4195, 51, 1, 30])
2024-10-14 17:20:07,990 - root - INFO - val: torch.Size([1027, 51, 1, 30]), torch.Size([1027, 51, 1, 30])
2024-10-14 17:20:07,991 - root - INFO - 训练集文件data/SWAT/train_swat_gcn.npz
2024-10-14 17:20:08,014 - root - INFO - Grelen(
  (graph_learner): Graph_learner(
    (mlp1): MLP(
      (fc1): Linear(in_features=30, out_features=64, bias=True)
      (fc2): Linear(in_features=64, out_features=64, bias=True)
      (bn): BatchNorm1d(64, eps=1e-05, momentum=0.1, affine=True, track_running_stats=True)
    )
    (Wq): Linear(in_features=64, out_features=128, bias=True)
    (Wk): Linear(in_features=64, out_features=128, bias=True)
  )
  (linear1): Linear(in_features=1, out_features=64, bias=True)
  (encoder_model): ModuleList(
    (0-2): 3 x EncoderModel(
      (gcn_layers): ModuleList(
        (0): SoftPoolingGcnEncoder(
          (conv_first): GraphConv()
          (conv_block): ModuleList(
            (0): GraphConv()
          )
          (conv_last): GraphConv()
          (act): ReLU()
          (pred_model): Sequential(
            (0): Linear(in_features=384, out_features=50, bias=True)
            (1): ReLU()
            (2): Linear(in_features=50, out_features=2, bias=True)
          )
          (conv_first_after_pool): ModuleList(
            (0): GraphConv()
          )
          (conv_block_after_pool): ModuleList(
            (0): ModuleList(
              (0): GraphConv()
            )
          )
          (conv_last_after_pool): ModuleList(
            (0): GraphConv()
          )
          (assign_conv_first_modules): ModuleList(
            (0): GraphConv()
          )
          (assign_conv_block_modules): ModuleList(
            (0): ModuleList(
              (0): GraphConv()
            )
          )
          (assign_conv_last_modules): ModuleList(
            (0): GraphConv()
          )
          (assign_pred_modules): ModuleList(
            (0): Linear(in_features=140, out_features=12, bias=True)
          )
        )
      )
      (projection_layer): Linear(in_features=2, out_features=3264, bias=True)
    )
  )
  (linear_out): Linear(in_features=64, out_features=1, bias=True)
  (soft_pooling_encoder): SoftPoolingGcnEncoder(
    (conv_first): GraphConv()
    (conv_block): ModuleList(
      (0): GraphConv()
    )
    (conv_last): GraphConv()
    (act): ReLU()
    (pred_model): Sequential(
      (0): Linear(in_features=384, out_features=50, bias=True)
      (1): ReLU()
      (2): Linear(in_features=50, out_features=2, bias=True)
    )
    (conv_first_after_pool): ModuleList(
      (0): GraphConv()
    )
    (conv_block_after_pool): ModuleList(
      (0): ModuleList(
        (0): GraphConv()
      )
    )
    (conv_last_after_pool): ModuleList(
      (0): GraphConv()
    )
    (assign_conv_first_modules): ModuleList(
      (0): GraphConv()
    )
    (assign_conv_block_modules): ModuleList(
      (0): ModuleList(
        (0): GraphConv()
      )
    )
    (assign_conv_last_modules): ModuleList(
      (0): GraphConv()
    )
    (assign_pred_modules): ModuleList(
      (0): Linear(in_features=140, out_features=12, bias=True)
    )
  )
)
2024-10-14 20:06:31,122 - root - INFO - train: torch.Size([4195, 51, 1, 30]), torch.Size([4195, 51, 1, 30])
2024-10-14 20:06:31,123 - root - INFO - val: torch.Size([1027, 51, 1, 30]), torch.Size([1027, 51, 1, 30])
2024-10-14 20:06:31,124 - root - INFO - 训练集文件data/SWAT/train_swat_gcn.npz
2024-10-14 20:06:31,150 - root - INFO - Grelen(
  (graph_learner): Graph_learner(
    (mlp1): MLP(
      (fc1): Linear(in_features=30, out_features=64, bias=True)
      (fc2): Linear(in_features=64, out_features=64, bias=True)
      (bn): BatchNorm1d(64, eps=1e-05, momentum=0.1, affine=True, track_running_stats=True)
    )
    (Wq): Linear(in_features=64, out_features=128, bias=True)
    (Wk): Linear(in_features=64, out_features=128, bias=True)
  )
  (linear1): Linear(in_features=1, out_features=64, bias=True)
  (encoder_model): ModuleList(
    (0-2): 3 x EncoderModel(
      (gcn_layers): ModuleList(
        (0): SoftPoolingGcnEncoder(
          (conv_first): GraphConv()
          (conv_block): ModuleList(
            (0): GraphConv()
          )
          (conv_last): GraphConv()
          (act): ReLU()
          (pred_model): Sequential(
            (0): Linear(in_features=384, out_features=50, bias=True)
            (1): ReLU()
            (2): Linear(in_features=50, out_features=2, bias=True)
          )
          (conv_first_after_pool): ModuleList(
            (0): GraphConv()
          )
          (conv_block_after_pool): ModuleList(
            (0): ModuleList(
              (0): GraphConv()
            )
          )
          (conv_last_after_pool): ModuleList(
            (0): GraphConv()
          )
          (assign_conv_first_modules): ModuleList(
            (0): GraphConv()
          )
          (assign_conv_block_modules): ModuleList(
            (0): ModuleList(
              (0): GraphConv()
            )
          )
          (assign_conv_last_modules): ModuleList(
            (0): GraphConv()
          )
          (assign_pred_modules): ModuleList(
            (0): Linear(in_features=140, out_features=12, bias=True)
          )
        )
      )
      (projection_layer): Linear(in_features=2, out_features=3264, bias=True)
    )
  )
  (linear_out): Linear(in_features=64, out_features=1, bias=True)
  (soft_pooling_encoder): SoftPoolingGcnEncoder(
    (conv_first): GraphConv()
    (conv_block): ModuleList(
      (0): GraphConv()
    )
    (conv_last): GraphConv()
    (act): ReLU()
    (pred_model): Sequential(
      (0): Linear(in_features=384, out_features=50, bias=True)
      (1): ReLU()
      (2): Linear(in_features=50, out_features=2, bias=True)
    )
    (conv_first_after_pool): ModuleList(
      (0): GraphConv()
    )
    (conv_block_after_pool): ModuleList(
      (0): ModuleList(
        (0): GraphConv()
      )
    )
    (conv_last_after_pool): ModuleList(
      (0): GraphConv()
    )
    (assign_conv_first_modules): ModuleList(
      (0): GraphConv()
    )
    (assign_conv_block_modules): ModuleList(
      (0): ModuleList(
        (0): GraphConv()
      )
    )
    (assign_conv_last_modules): ModuleList(
      (0): GraphConv()
    )
    (assign_pred_modules): ModuleList(
      (0): Linear(in_features=140, out_features=12, bias=True)
    )
  )
)
2024-10-14 20:06:41,913 - root - INFO - epoch: 0, validation loss: 74.19
2024-10-14 20:06:41,926 - root - INFO - save parameters to file: experiments/swat_test/epoch_0.params
2024-10-14 20:07:17,078 - root - INFO - train: torch.Size([4195, 51, 1, 30]), torch.Size([4195, 51, 1, 30])
2024-10-14 20:07:17,079 - root - INFO - val: torch.Size([1027, 51, 1, 30]), torch.Size([1027, 51, 1, 30])
2024-10-14 20:07:17,080 - root - INFO - 训练集文件data/SWAT/train_swat_gcn.npz
2024-10-14 20:07:17,110 - root - INFO - Grelen(
  (graph_learner): Graph_learner(
    (mlp1): MLP(
      (fc1): Linear(in_features=30, out_features=64, bias=True)
      (fc2): Linear(in_features=64, out_features=64, bias=True)
      (bn): BatchNorm1d(64, eps=1e-05, momentum=0.1, affine=True, track_running_stats=True)
    )
    (Wq): Linear(in_features=64, out_features=128, bias=True)
    (Wk): Linear(in_features=64, out_features=128, bias=True)
  )
  (linear1): Linear(in_features=1, out_features=64, bias=True)
  (encoder_model): ModuleList(
    (0-2): 3 x EncoderModel(
      (gcn_layers): ModuleList(
        (0): SoftPoolingGcnEncoder(
          (conv_first): GraphConv()
          (conv_block): ModuleList(
            (0): GraphConv()
          )
          (conv_last): GraphConv()
          (act): ReLU()
          (pred_model): Sequential(
            (0): Linear(in_features=384, out_features=50, bias=True)
            (1): ReLU()
            (2): Linear(in_features=50, out_features=2, bias=True)
          )
          (conv_first_after_pool): ModuleList(
            (0): GraphConv()
          )
          (conv_block_after_pool): ModuleList(
            (0): ModuleList(
              (0): GraphConv()
            )
          )
          (conv_last_after_pool): ModuleList(
            (0): GraphConv()
          )
          (assign_conv_first_modules): ModuleList(
            (0): GraphConv()
          )
          (assign_conv_block_modules): ModuleList(
            (0): ModuleList(
              (0): GraphConv()
            )
          )
          (assign_conv_last_modules): ModuleList(
            (0): GraphConv()
          )
          (assign_pred_modules): ModuleList(
            (0): Linear(in_features=140, out_features=12, bias=True)
          )
        )
      )
      (projection_layer): Linear(in_features=2, out_features=3264, bias=True)
    )
  )
  (linear_out): Linear(in_features=64, out_features=1, bias=True)
  (soft_pooling_encoder): SoftPoolingGcnEncoder(
    (conv_first): GraphConv()
    (conv_block): ModuleList(
      (0): GraphConv()
    )
    (conv_last): GraphConv()
    (act): ReLU()
    (pred_model): Sequential(
      (0): Linear(in_features=384, out_features=50, bias=True)
      (1): ReLU()
      (2): Linear(in_features=50, out_features=2, bias=True)
    )
    (conv_first_after_pool): ModuleList(
      (0): GraphConv()
    )
    (conv_block_after_pool): ModuleList(
      (0): ModuleList(
        (0): GraphConv()
      )
    )
    (conv_last_after_pool): ModuleList(
      (0): GraphConv()
    )
    (assign_conv_first_modules): ModuleList(
      (0): GraphConv()
    )
    (assign_conv_block_modules): ModuleList(
      (0): ModuleList(
        (0): GraphConv()
      )
    )
    (assign_conv_last_modules): ModuleList(
      (0): GraphConv()
    )
    (assign_pred_modules): ModuleList(
      (0): Linear(in_features=140, out_features=12, bias=True)
    )
  )
)
2024-10-14 20:07:22,594 - root - INFO - epoch: 0, validation loss: 71.93
2024-10-14 20:07:22,608 - root - INFO - save parameters to file: experiments/swat_test/epoch_0.params
2024-10-14 20:07:54,611 - root - INFO - epoch:0,kl loss:0.6619443893432617,nll loss:2.4208829402923584,diffpool loss:71.70161437988281
2024-10-14 20:07:54,611 - root - INFO - epoch:0,elapsed time:37.500672578811646,total time:37.500672578811646
…
2024-10-14 20:19:09,678 - root - INFO - epoch:19,kl loss:0.2029588371515274,nll loss:1.0879091024398804,diffpool loss:65.6281509399414
2024-10-14 20:19:09,678 - root - INFO - epoch:19,elapsed time:35.63651514053345,total time:712.5658075809479
2024-10-14 20:19:13,736 - root - INFO - epoch: 20, validation loss: 61.86
2024-10-14 21:11:51,841 - root - INFO - train: torch.Size([4195, 51, 1, 30]), torch.Size([4195, 51, 1, 30])
2024-10-14 21:11:51,841 - root - INFO - val: torch.Size([1027, 51, 1, 30]), torch.Size([1027, 51, 1, 30])
2024-10-14 21:11:51,842 - root - INFO - 训练集文件data/SWAT/train_swat_gcn.npz
2024-10-14 21:11:51,866 - root - INFO - Grelen(
  (graph_learner): Graph_learner(
    (mlp1): MLP(
      (fc1): Linear(in_features=30, out_features=64, bias=True)
      (fc2): Linear(in_features=64, out_features=64, bias=True)
      (bn): BatchNorm1d(64, eps=1e-05, momentum=0.1, affine=True, track_running_stats=True)
    )
    (Wq): Linear(in_features=64, out_features=128, bias=True)
    (Wk): Linear(in_features=64, out_features=128, bias=True)
  )
  (linear1): Linear(in_features=1, out_features=64, bias=True)
  (encoder_model): ModuleList(
    (0-2): 3 x EncoderModel(
      (gcn_layers): ModuleList(
        (0): SoftPoolingGcnEncoder(
          (conv_first): GraphConv()
          (conv_block): ModuleList(
            (0): GraphConv()
          )
          (conv_last): GraphConv()
          (act): ReLU()
          (pred_model): Sequential(
            (0): Linear(in_features=384, out_features=50, bias=True)
            (1): ReLU()
            (2): Linear(in_features=50, out_features=2, bias=True)
          )
          (conv_first_after_pool): ModuleList(
            (0): GraphConv()
          )
          (conv_block_after_pool): ModuleList(
            (0): ModuleList(
              (0): GraphConv()
            )
          )
          (conv_last_after_pool): ModuleList(
            (0): GraphConv()
          )
          (assign_conv_first_modules): ModuleList(
            (0): GraphConv()
          )
          (assign_conv_block_modules): ModuleList(
            (0): ModuleList(
              (0): GraphConv()
            )
          )
          (assign_conv_last_modules): ModuleList(
            (0): GraphConv()
          )
          (assign_pred_modules): ModuleList(
            (0): Linear(in_features=140, out_features=12, bias=True)
          )
        )
      )
      (projection_layer): Linear(in_features=2, out_features=3264, bias=True)
    )
  )
  (linear_out): Linear(in_features=64, out_features=1, bias=True)
  (soft_pooling_encoder): SoftPoolingGcnEncoder(
    (conv_first): GraphConv()
    (conv_block): ModuleList(
      (0): GraphConv()
    )
    (conv_last): GraphConv()
    (act): ReLU()
    (pred_model): Sequential(
      (0): Linear(in_features=384, out_features=50, bias=True)
      (1): ReLU()
      (2): Linear(in_features=50, out_features=2, bias=True)
    )
    (conv_first_after_pool): ModuleList(
      (0): GraphConv()
    )
    (conv_block_after_pool): ModuleList(
      (0): ModuleList(
        (0): GraphConv()
      )
    )
    (conv_last_after_pool): ModuleList(
      (0): GraphConv()
    )
    (assign_conv_first_modules): ModuleList(
      (0): GraphConv()
    )
    (assign_conv_block_modules): ModuleList(
      (0): ModuleList(
        (0): GraphConv()
      )
    )
    (assign_conv_last_modules): ModuleList(
      (0): GraphConv()
    )
    (assign_pred_modules): ModuleList(
      (0): Linear(in_features=140, out_features=12, bias=True)
    )
  )
)
2024-10-14 21:11:57,430 - root - INFO - epoch: 0, validation loss: 73.21
2024-10-14 21:11:57,442 - root - INFO - save parameters to file: experiments/swat_test/epoch_0.params
2024-10-14 21:12:33,307 - root - INFO - epoch:0,kl loss:0.6540628671646118,nll loss:2.7353034019470215,diffpool loss:72.36747741699219
2024-10-14 21:12:33,307 - root - INFO - epoch:0,elapsed time:41.440221071243286,total time:41.440221071243286
…
2024-10-15 02:05:03,855 - root - INFO - epoch:299,kl loss:0.09927961230278015,nll loss:0.9953508377075195,diffpool loss:64.83770751953125
2024-10-15 02:05:03,856 - root - INFO - epoch:299,elapsed time:34.5626335144043,total time:10529.905414104462
2024-10-15 21:04:38,106 - root - INFO - train: torch.Size([4195, 51, 1, 30]), torch.Size([4195, 51, 1, 30])
2024-10-15 21:04:38,107 - root - INFO - val: torch.Size([1027, 51, 1, 30]), torch.Size([1027, 51, 1, 30])
2024-10-15 21:04:38,108 - root - INFO - 训练集文件data/SWAT/train_swat_gcn.npz
2024-10-15 21:04:38,137 - root - INFO - Grelen(
  (graph_learner): Graph_learner(
    (mlp1): MLP(
      (fc1): Linear(in_features=30, out_features=64, bias=True)
      (fc2): Linear(in_features=64, out_features=64, bias=True)
      (bn): BatchNorm1d(64, eps=1e-05, momentum=0.1, affine=True, track_running_stats=True)
    )
    (Wq): Linear(in_features=64, out_features=128, bias=True)
    (Wk): Linear(in_features=64, out_features=128, bias=True)
  )
  (linear1): Linear(in_features=1, out_features=64, bias=True)
  (encoder_model): ModuleList(
    (0-2): 3 x EncoderModel(
      (gcn_layers): ModuleList(
        (0): SoftPoolingGcnEncoder(
          (conv_first): GraphConv()
          (conv_block): ModuleList(
            (0): GraphConv()
          )
          (conv_last): GraphConv()
          (act): ReLU()
          (pred_model): Sequential(
            (0): Linear(in_features=384, out_features=50, bias=True)
            (1): ReLU()
            (2): Linear(in_features=50, out_features=2, bias=True)
          )
          (conv_first_after_pool): ModuleList(
            (0): GraphConv()
          )
          (conv_block_after_pool): ModuleList(
            (0): ModuleList(
              (0): GraphConv()
            )
          )
          (conv_last_after_pool): ModuleList(
            (0): GraphConv()
          )
          (assign_conv_first_modules): ModuleList(
            (0): GraphConv()
          )
          (assign_conv_block_modules): ModuleList(
            (0): ModuleList(
              (0): GraphConv()
            )
          )
          (assign_conv_last_modules): ModuleList(
            (0): GraphConv()
          )
          (assign_pred_modules): ModuleList(
            (0): Linear(in_features=140, out_features=12, bias=True)
          )
        )
      )
    )
  )
  (linear_out): Linear(in_features=2, out_features=2, bias=True)
  (soft_pooling_encoder): SoftPoolingGcnEncoder(
    (conv_first): GraphConv()
    (conv_block): ModuleList(
      (0): GraphConv()
    )
    (conv_last): GraphConv()
    (act): ReLU()
    (pred_model): Sequential(
      (0): Linear(in_features=384, out_features=50, bias=True)
      (1): ReLU()
      (2): Linear(in_features=50, out_features=2, bias=True)
    )
    (conv_first_after_pool): ModuleList(
      (0): GraphConv()
    )
    (conv_block_after_pool): ModuleList(
      (0): ModuleList(
        (0): GraphConv()
      )
    )
    (conv_last_after_pool): ModuleList(
      (0): GraphConv()
    )
    (assign_conv_first_modules): ModuleList(
      (0): GraphConv()
    )
    (assign_conv_block_modules): ModuleList(
      (0): ModuleList(
        (0): GraphConv()
      )
    )
    (assign_conv_last_modules): ModuleList(
      (0): GraphConv()
    )
    (assign_pred_modules): ModuleList(
      (0): Linear(in_features=140, out_features=12, bias=True)
    )
  )
)
