2024-10-10 10:59:46,227 - root - INFO - train: torch.Size([4195, 51, 1, 30]), torch.Size([4195, 51, 1, 30])
2024-10-10 10:59:46,227 - root - INFO - val: torch.Size([1027, 51, 1, 30]), torch.Size([1027, 51, 1, 30])
2024-10-10 10:59:46,228 - root - INFO - 训练集文件data/SWAT/train_swat_gcn.npz
2024-10-10 10:59:46,253 - root - INFO - Grelen(
  (graph_learner): Graph_learner(
    (mlp1): MLP(
      (fc1): Linear(in_features=30, out_features=64, bias=True)
      (fc2): Linear(in_features=64, out_features=64, bias=True)
      (bn): BatchNorm1d(64, eps=1e-05, momentum=0.1, affine=True, track_running_stats=True)
    )
    (Wq): Linear(in_features=64, out_features=128, bias=True)
    (Wk): Linear(in_features=64, out_features=128, bias=True)
  )
  (linear1): Linear(in_features=1, out_features=64, bias=True)
  (encoder_model): ModuleList(
    (0-2): 3 x EncoderModel(
      (gcn_layers): ModuleList(
        (0): SoftPoolingGcnEncoder(
          (conv_first): GraphConv()
          (conv_block): ModuleList(
            (0): GraphConv()
          )
          (conv_last): GraphConv()
          (act): ReLU()
          (pred_model): Sequential(
            (0): Linear(in_features=384, out_features=50, bias=True)
            (1): ReLU()
            (2): Linear(in_features=50, out_features=2, bias=True)
          )
          (conv_first_after_pool): ModuleList(
            (0): GraphConv()
          )
          (conv_block_after_pool): ModuleList(
            (0): ModuleList(
              (0): GraphConv()
            )
          )
          (conv_last_after_pool): ModuleList(
            (0): GraphConv()
          )
          (assign_conv_first_modules): ModuleList(
            (0): GraphConv()
          )
          (assign_conv_block_modules): ModuleList(
            (0): ModuleList(
              (0): GraphConv()
            )
          )
          (assign_conv_last_modules): ModuleList(
            (0): GraphConv()
          )
          (assign_pred_modules): ModuleList(
            (0): Linear(in_features=140, out_features=12, bias=True)
          )
        )
      )
      (projection_layer): Linear(in_features=2, out_features=3264, bias=True)
    )
  )
  (linear_out): Linear(in_features=64, out_features=1, bias=True)
)
2024-10-10 11:01:36,029 - root - INFO - train: torch.Size([4195, 51, 1, 30]), torch.Size([4195, 51, 1, 30])
2024-10-10 11:01:36,030 - root - INFO - val: torch.Size([1027, 51, 1, 30]), torch.Size([1027, 51, 1, 30])
2024-10-10 11:01:36,032 - root - INFO - 训练集文件data/SWAT/train_swat_gcn.npz
2024-10-10 11:01:36,063 - root - INFO - Grelen(
  (graph_learner): Graph_learner(
    (mlp1): MLP(
      (fc1): Linear(in_features=30, out_features=64, bias=True)
      (fc2): Linear(in_features=64, out_features=64, bias=True)
      (bn): BatchNorm1d(64, eps=1e-05, momentum=0.1, affine=True, track_running_stats=True)
    )
    (Wq): Linear(in_features=64, out_features=128, bias=True)
    (Wk): Linear(in_features=64, out_features=128, bias=True)
  )
  (linear1): Linear(in_features=1, out_features=64, bias=True)
  (encoder_model): ModuleList(
    (0-2): 3 x EncoderModel(
      (gcn_layers): ModuleList(
        (0): SoftPoolingGcnEncoder(
          (conv_first): GraphConv()
          (conv_block): ModuleList(
            (0): GraphConv()
          )
          (conv_last): GraphConv()
          (act): ReLU()
          (pred_model): Sequential(
            (0): Linear(in_features=384, out_features=50, bias=True)
            (1): ReLU()
            (2): Linear(in_features=50, out_features=2, bias=True)
          )
          (conv_first_after_pool): ModuleList(
            (0): GraphConv()
          )
          (conv_block_after_pool): ModuleList(
            (0): ModuleList(
              (0): GraphConv()
            )
          )
          (conv_last_after_pool): ModuleList(
            (0): GraphConv()
          )
          (assign_conv_first_modules): ModuleList(
            (0): GraphConv()
          )
          (assign_conv_block_modules): ModuleList(
            (0): ModuleList(
              (0): GraphConv()
            )
          )
          (assign_conv_last_modules): ModuleList(
            (0): GraphConv()
          )
          (assign_pred_modules): ModuleList(
            (0): Linear(in_features=140, out_features=12, bias=True)
          )
        )
      )
      (projection_layer): Linear(in_features=2, out_features=3264, bias=True)
    )
  )
  (linear_out): Linear(in_features=64, out_features=1, bias=True)
)
2024-10-10 11:02:22,886 - root - INFO - train: torch.Size([4195, 51, 1, 30]), torch.Size([4195, 51, 1, 30])
2024-10-10 11:02:22,887 - root - INFO - val: torch.Size([1027, 51, 1, 30]), torch.Size([1027, 51, 1, 30])
2024-10-10 11:02:22,888 - root - INFO - 训练集文件data/SWAT/train_swat_gcn.npz
2024-10-10 11:02:22,911 - root - INFO - Grelen(
  (graph_learner): Graph_learner(
    (mlp1): MLP(
      (fc1): Linear(in_features=30, out_features=64, bias=True)
      (fc2): Linear(in_features=64, out_features=64, bias=True)
      (bn): BatchNorm1d(64, eps=1e-05, momentum=0.1, affine=True, track_running_stats=True)
    )
    (Wq): Linear(in_features=64, out_features=128, bias=True)
    (Wk): Linear(in_features=64, out_features=128, bias=True)
  )
  (linear1): Linear(in_features=1, out_features=64, bias=True)
  (encoder_model): ModuleList(
    (0-2): 3 x EncoderModel(
      (gcn_layers): ModuleList(
        (0): SoftPoolingGcnEncoder(
          (conv_first): GraphConv()
          (conv_block): ModuleList(
            (0): GraphConv()
          )
          (conv_last): GraphConv()
          (act): ReLU()
          (pred_model): Sequential(
            (0): Linear(in_features=384, out_features=50, bias=True)
            (1): ReLU()
            (2): Linear(in_features=50, out_features=2, bias=True)
          )
          (conv_first_after_pool): ModuleList(
            (0): GraphConv()
          )
          (conv_block_after_pool): ModuleList(
            (0): ModuleList(
              (0): GraphConv()
            )
          )
          (conv_last_after_pool): ModuleList(
            (0): GraphConv()
          )
          (assign_conv_first_modules): ModuleList(
            (0): GraphConv()
          )
          (assign_conv_block_modules): ModuleList(
            (0): ModuleList(
              (0): GraphConv()
            )
          )
          (assign_conv_last_modules): ModuleList(
            (0): GraphConv()
          )
          (assign_pred_modules): ModuleList(
            (0): Linear(in_features=140, out_features=12, bias=True)
          )
        )
      )
      (projection_layer): Linear(in_features=2, out_features=3264, bias=True)
    )
  )
  (linear_out): Linear(in_features=64, out_features=1, bias=True)
)
2024-10-10 11:03:10,531 - root - INFO - train: torch.Size([4195, 51, 1, 30]), torch.Size([4195, 51, 1, 30])
2024-10-10 11:03:10,532 - root - INFO - val: torch.Size([1027, 51, 1, 30]), torch.Size([1027, 51, 1, 30])
2024-10-10 11:03:10,533 - root - INFO - 训练集文件data/SWAT/train_swat_gcn.npz
2024-10-10 11:03:10,557 - root - INFO - Grelen(
  (graph_learner): Graph_learner(
    (mlp1): MLP(
      (fc1): Linear(in_features=30, out_features=64, bias=True)
      (fc2): Linear(in_features=64, out_features=64, bias=True)
      (bn): BatchNorm1d(64, eps=1e-05, momentum=0.1, affine=True, track_running_stats=True)
    )
    (Wq): Linear(in_features=64, out_features=128, bias=True)
    (Wk): Linear(in_features=64, out_features=128, bias=True)
  )
  (linear1): Linear(in_features=1, out_features=64, bias=True)
  (encoder_model): ModuleList(
    (0-2): 3 x EncoderModel(
      (gcn_layers): ModuleList(
        (0): SoftPoolingGcnEncoder(
          (conv_first): GraphConv()
          (conv_block): ModuleList(
            (0): GraphConv()
          )
          (conv_last): GraphConv()
          (act): ReLU()
          (pred_model): Sequential(
            (0): Linear(in_features=384, out_features=50, bias=True)
            (1): ReLU()
            (2): Linear(in_features=50, out_features=2, bias=True)
          )
          (conv_first_after_pool): ModuleList(
            (0): GraphConv()
          )
          (conv_block_after_pool): ModuleList(
            (0): ModuleList(
              (0): GraphConv()
            )
          )
          (conv_last_after_pool): ModuleList(
            (0): GraphConv()
          )
          (assign_conv_first_modules): ModuleList(
            (0): GraphConv()
          )
          (assign_conv_block_modules): ModuleList(
            (0): ModuleList(
              (0): GraphConv()
            )
          )
          (assign_conv_last_modules): ModuleList(
            (0): GraphConv()
          )
          (assign_pred_modules): ModuleList(
            (0): Linear(in_features=140, out_features=12, bias=True)
          )
        )
      )
      (projection_layer): Linear(in_features=2, out_features=3264, bias=True)
    )
  )
  (linear_out): Linear(in_features=64, out_features=1, bias=True)
)
2024-10-10 11:06:19,371 - root - INFO - train: torch.Size([4195, 51, 1, 30]), torch.Size([4195, 51, 1, 30])
2024-10-10 11:06:19,372 - root - INFO - val: torch.Size([1027, 51, 1, 30]), torch.Size([1027, 51, 1, 30])
2024-10-10 11:06:19,374 - root - INFO - 训练集文件data/SWAT/train_swat_gcn.npz
2024-10-10 11:06:19,405 - root - INFO - Grelen(
  (graph_learner): Graph_learner(
    (mlp1): MLP(
      (fc1): Linear(in_features=30, out_features=64, bias=True)
      (fc2): Linear(in_features=64, out_features=64, bias=True)
      (bn): BatchNorm1d(64, eps=1e-05, momentum=0.1, affine=True, track_running_stats=True)
    )
    (Wq): Linear(in_features=64, out_features=128, bias=True)
    (Wk): Linear(in_features=64, out_features=128, bias=True)
  )
  (linear1): Linear(in_features=1, out_features=64, bias=True)
  (encoder_model): ModuleList(
    (0-2): 3 x EncoderModel(
      (gcn_layers): ModuleList(
        (0): SoftPoolingGcnEncoder(
          (conv_first): GraphConv()
          (conv_block): ModuleList(
            (0): GraphConv()
          )
          (conv_last): GraphConv()
          (act): ReLU()
          (pred_model): Sequential(
            (0): Linear(in_features=384, out_features=50, bias=True)
            (1): ReLU()
            (2): Linear(in_features=50, out_features=2, bias=True)
          )
          (conv_first_after_pool): ModuleList(
            (0): GraphConv()
          )
          (conv_block_after_pool): ModuleList(
            (0): ModuleList(
              (0): GraphConv()
            )
          )
          (conv_last_after_pool): ModuleList(
            (0): GraphConv()
          )
          (assign_conv_first_modules): ModuleList(
            (0): GraphConv()
          )
          (assign_conv_block_modules): ModuleList(
            (0): ModuleList(
              (0): GraphConv()
            )
          )
          (assign_conv_last_modules): ModuleList(
            (0): GraphConv()
          )
          (assign_pred_modules): ModuleList(
            (0): Linear(in_features=140, out_features=12, bias=True)
          )
        )
      )
      (projection_layer): Linear(in_features=2, out_features=3264, bias=True)
    )
  )
  (linear_out): Linear(in_features=64, out_features=1, bias=True)
)
2024-10-10 12:32:18,992 - root - INFO - train: torch.Size([4195, 51, 1, 30]), torch.Size([4195, 51, 1, 30])
2024-10-10 12:32:18,993 - root - INFO - val: torch.Size([1027, 51, 1, 30]), torch.Size([1027, 51, 1, 30])
2024-10-10 12:32:18,994 - root - INFO - 训练集文件data/SWAT/train_swat_gcn.npz
2024-10-10 12:32:19,025 - root - INFO - Grelen(
  (graph_learner): Graph_learner(
    (mlp1): MLP(
      (fc1): Linear(in_features=30, out_features=64, bias=True)
      (fc2): Linear(in_features=64, out_features=64, bias=True)
      (bn): BatchNorm1d(64, eps=1e-05, momentum=0.1, affine=True, track_running_stats=True)
    )
    (Wq): Linear(in_features=64, out_features=128, bias=True)
    (Wk): Linear(in_features=64, out_features=128, bias=True)
  )
  (linear1): Linear(in_features=1, out_features=64, bias=True)
  (encoder_model): ModuleList(
    (0-2): 3 x EncoderModel(
      (gcn_layers): ModuleList(
        (0): SoftPoolingGcnEncoder(
          (conv_first): GraphConv()
          (conv_block): ModuleList(
            (0): GraphConv()
          )
          (conv_last): GraphConv()
          (act): ReLU()
          (pred_model): Sequential(
            (0): Linear(in_features=384, out_features=50, bias=True)
            (1): ReLU()
            (2): Linear(in_features=50, out_features=2, bias=True)
          )
          (conv_first_after_pool): ModuleList(
            (0): GraphConv()
          )
          (conv_block_after_pool): ModuleList(
            (0): ModuleList(
              (0): GraphConv()
            )
          )
          (conv_last_after_pool): ModuleList(
            (0): GraphConv()
          )
          (assign_conv_first_modules): ModuleList(
            (0): GraphConv()
          )
          (assign_conv_block_modules): ModuleList(
            (0): ModuleList(
              (0): GraphConv()
            )
          )
          (assign_conv_last_modules): ModuleList(
            (0): GraphConv()
          )
          (assign_pred_modules): ModuleList(
            (0): Linear(in_features=140, out_features=12, bias=True)
          )
        )
      )
      (projection_layer): Linear(in_features=2, out_features=3264, bias=True)
    )
  )
  (linear_out): Linear(in_features=64, out_features=1, bias=True)
)
2024-10-10 12:42:57,454 - root - INFO - train: torch.Size([4195, 51, 1, 30]), torch.Size([4195, 51, 1, 30])
2024-10-10 12:42:57,454 - root - INFO - val: torch.Size([1027, 51, 1, 30]), torch.Size([1027, 51, 1, 30])
2024-10-10 12:42:57,455 - root - INFO - 训练集文件data/SWAT/train_swat_gcn.npz
2024-10-10 12:42:57,478 - root - INFO - Grelen(
  (graph_learner): Graph_learner(
    (mlp1): MLP(
      (fc1): Linear(in_features=30, out_features=64, bias=True)
      (fc2): Linear(in_features=64, out_features=64, bias=True)
      (bn): BatchNorm1d(64, eps=1e-05, momentum=0.1, affine=True, track_running_stats=True)
    )
    (Wq): Linear(in_features=64, out_features=128, bias=True)
    (Wk): Linear(in_features=64, out_features=128, bias=True)
  )
  (linear1): Linear(in_features=1, out_features=64, bias=True)
  (encoder_model): ModuleList(
    (0-2): 3 x EncoderModel(
      (gcn_layers): ModuleList(
        (0): SoftPoolingGcnEncoder(
          (conv_first): GraphConv()
          (conv_block): ModuleList(
            (0): GraphConv()
          )
          (conv_last): GraphConv()
          (act): ReLU()
          (pred_model): Sequential(
            (0): Linear(in_features=384, out_features=50, bias=True)
            (1): ReLU()
            (2): Linear(in_features=50, out_features=2, bias=True)
          )
          (conv_first_after_pool): ModuleList(
            (0): GraphConv()
          )
          (conv_block_after_pool): ModuleList(
            (0): ModuleList(
              (0): GraphConv()
            )
          )
          (conv_last_after_pool): ModuleList(
            (0): GraphConv()
          )
          (assign_conv_first_modules): ModuleList(
            (0): GraphConv()
          )
          (assign_conv_block_modules): ModuleList(
            (0): ModuleList(
              (0): GraphConv()
            )
          )
          (assign_conv_last_modules): ModuleList(
            (0): GraphConv()
          )
          (assign_pred_modules): ModuleList(
            (0): Linear(in_features=140, out_features=12, bias=True)
          )
        )
      )
      (projection_layer): Linear(in_features=2, out_features=3264, bias=True)
    )
  )
  (linear_out): Linear(in_features=64, out_features=1, bias=True)
)
2024-10-10 12:44:42,657 - root - INFO - train: torch.Size([4195, 51, 1, 30]), torch.Size([4195, 51, 1, 30])
2024-10-10 12:44:42,657 - root - INFO - val: torch.Size([1027, 51, 1, 30]), torch.Size([1027, 51, 1, 30])
2024-10-10 12:44:42,658 - root - INFO - 训练集文件data/SWAT/train_swat_gcn.npz
2024-10-10 12:44:42,682 - root - INFO - Grelen(
  (graph_learner): Graph_learner(
    (mlp1): MLP(
      (fc1): Linear(in_features=30, out_features=64, bias=True)
      (fc2): Linear(in_features=64, out_features=64, bias=True)
      (bn): BatchNorm1d(64, eps=1e-05, momentum=0.1, affine=True, track_running_stats=True)
    )
    (Wq): Linear(in_features=64, out_features=128, bias=True)
    (Wk): Linear(in_features=64, out_features=128, bias=True)
  )
  (linear1): Linear(in_features=1, out_features=64, bias=True)
  (encoder_model): ModuleList(
    (0-2): 3 x EncoderModel(
      (gcn_layers): ModuleList(
        (0): SoftPoolingGcnEncoder(
          (conv_first): GraphConv()
          (conv_block): ModuleList(
            (0): GraphConv()
          )
          (conv_last): GraphConv()
          (act): ReLU()
          (pred_model): Sequential(
            (0): Linear(in_features=384, out_features=50, bias=True)
            (1): ReLU()
            (2): Linear(in_features=50, out_features=2, bias=True)
          )
          (conv_first_after_pool): ModuleList(
            (0): GraphConv()
          )
          (conv_block_after_pool): ModuleList(
            (0): ModuleList(
              (0): GraphConv()
            )
          )
          (conv_last_after_pool): ModuleList(
            (0): GraphConv()
          )
          (assign_conv_first_modules): ModuleList(
            (0): GraphConv()
          )
          (assign_conv_block_modules): ModuleList(
            (0): ModuleList(
              (0): GraphConv()
            )
          )
          (assign_conv_last_modules): ModuleList(
            (0): GraphConv()
          )
          (assign_pred_modules): ModuleList(
            (0): Linear(in_features=140, out_features=12, bias=True)
          )
        )
      )
      (projection_layer): Linear(in_features=2, out_features=3264, bias=True)
    )
  )
  (linear_out): Linear(in_features=64, out_features=1, bias=True)
)
2024-10-10 12:50:01,846 - root - INFO - train: torch.Size([4195, 51, 1, 30]), torch.Size([4195, 51, 1, 30])
2024-10-10 12:50:01,847 - root - INFO - val: torch.Size([1027, 51, 1, 30]), torch.Size([1027, 51, 1, 30])
2024-10-10 12:50:01,848 - root - INFO - 训练集文件data/SWAT/train_swat_gcn.npz
2024-10-10 12:50:01,871 - root - INFO - Grelen(
  (graph_learner): Graph_learner(
    (mlp1): MLP(
      (fc1): Linear(in_features=30, out_features=64, bias=True)
      (fc2): Linear(in_features=64, out_features=64, bias=True)
      (bn): BatchNorm1d(64, eps=1e-05, momentum=0.1, affine=True, track_running_stats=True)
    )
    (Wq): Linear(in_features=64, out_features=128, bias=True)
    (Wk): Linear(in_features=64, out_features=128, bias=True)
  )
  (linear1): Linear(in_features=1, out_features=64, bias=True)
  (encoder_model): ModuleList(
    (0-2): 3 x EncoderModel(
      (gcn_layers): ModuleList(
        (0): SoftPoolingGcnEncoder(
          (conv_first): GraphConv()
          (conv_block): ModuleList(
            (0): GraphConv()
          )
          (conv_last): GraphConv()
          (act): ReLU()
          (pred_model): Sequential(
            (0): Linear(in_features=384, out_features=50, bias=True)
            (1): ReLU()
            (2): Linear(in_features=50, out_features=2, bias=True)
          )
          (conv_first_after_pool): ModuleList(
            (0): GraphConv()
          )
          (conv_block_after_pool): ModuleList(
            (0): ModuleList(
              (0): GraphConv()
            )
          )
          (conv_last_after_pool): ModuleList(
            (0): GraphConv()
          )
          (assign_conv_first_modules): ModuleList(
            (0): GraphConv()
          )
          (assign_conv_block_modules): ModuleList(
            (0): ModuleList(
              (0): GraphConv()
            )
          )
          (assign_conv_last_modules): ModuleList(
            (0): GraphConv()
          )
          (assign_pred_modules): ModuleList(
            (0): Linear(in_features=140, out_features=12, bias=True)
          )
        )
      )
      (projection_layer): Linear(in_features=2, out_features=3264, bias=True)
    )
  )
  (linear_out): Linear(in_features=64, out_features=1, bias=True)
)
2024-10-10 15:09:46,462 - root - INFO - train: torch.Size([4195, 51, 1, 30]), torch.Size([4195, 51, 1, 30])
2024-10-10 15:09:46,462 - root - INFO - val: torch.Size([1027, 51, 1, 30]), torch.Size([1027, 51, 1, 30])
2024-10-10 15:09:46,463 - root - INFO - 训练集文件data/SWAT/train_swat_gcn.npz
2024-10-10 15:09:46,486 - root - INFO - Grelen(
  (graph_learner): Graph_learner(
    (mlp1): MLP(
      (fc1): Linear(in_features=30, out_features=64, bias=True)
      (fc2): Linear(in_features=64, out_features=64, bias=True)
      (bn): BatchNorm1d(64, eps=1e-05, momentum=0.1, affine=True, track_running_stats=True)
    )
    (Wq): Linear(in_features=64, out_features=128, bias=True)
    (Wk): Linear(in_features=64, out_features=128, bias=True)
  )
  (linear1): Linear(in_features=1, out_features=64, bias=True)
  (encoder_model): ModuleList(
    (0-2): 3 x EncoderModel(
      (gcn_layers): ModuleList(
        (0): SoftPoolingGcnEncoder(
          (conv_first): GraphConv()
          (conv_block): ModuleList(
            (0): GraphConv()
          )
          (conv_last): GraphConv()
          (act): ReLU()
          (pred_model): Sequential(
            (0): Linear(in_features=384, out_features=50, bias=True)
            (1): ReLU()
            (2): Linear(in_features=50, out_features=2, bias=True)
          )
          (conv_first_after_pool): ModuleList(
            (0): GraphConv()
          )
          (conv_block_after_pool): ModuleList(
            (0): ModuleList(
              (0): GraphConv()
            )
          )
          (conv_last_after_pool): ModuleList(
            (0): GraphConv()
          )
          (assign_conv_first_modules): ModuleList(
            (0): GraphConv()
          )
          (assign_conv_block_modules): ModuleList(
            (0): ModuleList(
              (0): GraphConv()
            )
          )
          (assign_conv_last_modules): ModuleList(
            (0): GraphConv()
          )
          (assign_pred_modules): ModuleList(
            (0): Linear(in_features=140, out_features=12, bias=True)
          )
        )
      )
      (projection_layer): Linear(in_features=2, out_features=3264, bias=True)
    )
  )
  (linear_out): Linear(in_features=64, out_features=1, bias=True)
)
2024-10-10 15:45:52,231 - root - INFO - train: torch.Size([4195, 51, 1, 30]), torch.Size([4195, 51, 1, 30])
2024-10-10 15:45:52,232 - root - INFO - val: torch.Size([1027, 51, 1, 30]), torch.Size([1027, 51, 1, 30])
2024-10-10 15:45:52,233 - root - INFO - 训练集文件data/SWAT/train_swat_gcn.npz
2024-10-10 15:45:52,256 - root - INFO - Grelen(
  (graph_learner): Graph_learner(
    (mlp1): MLP(
      (fc1): Linear(in_features=30, out_features=64, bias=True)
      (fc2): Linear(in_features=64, out_features=64, bias=True)
      (bn): BatchNorm1d(64, eps=1e-05, momentum=0.1, affine=True, track_running_stats=True)
    )
    (Wq): Linear(in_features=64, out_features=128, bias=True)
    (Wk): Linear(in_features=64, out_features=128, bias=True)
  )
  (linear1): Linear(in_features=1, out_features=64, bias=True)
  (encoder_model): ModuleList(
    (0-2): 3 x EncoderModel(
      (gcn_layers): ModuleList(
        (0): SoftPoolingGcnEncoder(
          (conv_first): GraphConv()
          (conv_block): ModuleList(
            (0): GraphConv()
          )
          (conv_last): GraphConv()
          (act): ReLU()
          (pred_model): Sequential(
            (0): Linear(in_features=384, out_features=50, bias=True)
            (1): ReLU()
            (2): Linear(in_features=50, out_features=2, bias=True)
          )
          (conv_first_after_pool): ModuleList(
            (0): GraphConv()
          )
          (conv_block_after_pool): ModuleList(
            (0): ModuleList(
              (0): GraphConv()
            )
          )
          (conv_last_after_pool): ModuleList(
            (0): GraphConv()
          )
          (assign_conv_first_modules): ModuleList(
            (0): GraphConv()
          )
          (assign_conv_block_modules): ModuleList(
            (0): ModuleList(
              (0): GraphConv()
            )
          )
          (assign_conv_last_modules): ModuleList(
            (0): GraphConv()
          )
          (assign_pred_modules): ModuleList(
            (0): Linear(in_features=140, out_features=12, bias=True)
          )
        )
      )
      (projection_layer): Linear(in_features=2, out_features=3264, bias=True)
    )
  )
  (linear_out): Linear(in_features=64, out_features=1, bias=True)
  (soft_pooling_encoder): SoftPoolingGcnEncoder(
    (conv_first): GraphConv()
    (conv_block): ModuleList(
      (0): GraphConv()
    )
    (conv_last): GraphConv()
    (act): ReLU()
    (pred_model): Sequential(
      (0): Linear(in_features=384, out_features=50, bias=True)
      (1): ReLU()
      (2): Linear(in_features=50, out_features=2, bias=True)
    )
    (conv_first_after_pool): ModuleList(
      (0): GraphConv()
    )
    (conv_block_after_pool): ModuleList(
      (0): ModuleList(
        (0): GraphConv()
      )
    )
    (conv_last_after_pool): ModuleList(
      (0): GraphConv()
    )
    (assign_conv_first_modules): ModuleList(
      (0): GraphConv()
    )
    (assign_conv_block_modules): ModuleList(
      (0): ModuleList(
        (0): GraphConv()
      )
    )
    (assign_conv_last_modules): ModuleList(
      (0): GraphConv()
    )
    (assign_pred_modules): ModuleList(
      (0): Linear(in_features=140, out_features=12, bias=True)
    )
  )
)
2024-10-10 15:46:37,771 - root - INFO - train: torch.Size([4195, 51, 1, 30]), torch.Size([4195, 51, 1, 30])
2024-10-10 15:46:37,772 - root - INFO - val: torch.Size([1027, 51, 1, 30]), torch.Size([1027, 51, 1, 30])
2024-10-10 15:46:37,773 - root - INFO - 训练集文件data/SWAT/train_swat_gcn.npz
2024-10-10 15:46:37,805 - root - INFO - Grelen(
  (graph_learner): Graph_learner(
    (mlp1): MLP(
      (fc1): Linear(in_features=30, out_features=64, bias=True)
      (fc2): Linear(in_features=64, out_features=64, bias=True)
      (bn): BatchNorm1d(64, eps=1e-05, momentum=0.1, affine=True, track_running_stats=True)
    )
    (Wq): Linear(in_features=64, out_features=128, bias=True)
    (Wk): Linear(in_features=64, out_features=128, bias=True)
  )
  (linear1): Linear(in_features=1, out_features=64, bias=True)
  (encoder_model): ModuleList(
    (0-2): 3 x EncoderModel(
      (gcn_layers): ModuleList(
        (0): SoftPoolingGcnEncoder(
          (conv_first): GraphConv()
          (conv_block): ModuleList(
            (0): GraphConv()
          )
          (conv_last): GraphConv()
          (act): ReLU()
          (pred_model): Sequential(
            (0): Linear(in_features=384, out_features=50, bias=True)
            (1): ReLU()
            (2): Linear(in_features=50, out_features=2, bias=True)
          )
          (conv_first_after_pool): ModuleList(
            (0): GraphConv()
          )
          (conv_block_after_pool): ModuleList(
            (0): ModuleList(
              (0): GraphConv()
            )
          )
          (conv_last_after_pool): ModuleList(
            (0): GraphConv()
          )
          (assign_conv_first_modules): ModuleList(
            (0): GraphConv()
          )
          (assign_conv_block_modules): ModuleList(
            (0): ModuleList(
              (0): GraphConv()
            )
          )
          (assign_conv_last_modules): ModuleList(
            (0): GraphConv()
          )
          (assign_pred_modules): ModuleList(
            (0): Linear(in_features=140, out_features=12, bias=True)
          )
        )
      )
      (projection_layer): Linear(in_features=2, out_features=3264, bias=True)
    )
  )
  (linear_out): Linear(in_features=64, out_features=1, bias=True)
  (soft_pooling_encoder): SoftPoolingGcnEncoder(
    (conv_first): GraphConv()
    (conv_block): ModuleList(
      (0): GraphConv()
    )
    (conv_last): GraphConv()
    (act): ReLU()
    (pred_model): Sequential(
      (0): Linear(in_features=384, out_features=50, bias=True)
      (1): ReLU()
      (2): Linear(in_features=50, out_features=2, bias=True)
    )
    (conv_first_after_pool): ModuleList(
      (0): GraphConv()
    )
    (conv_block_after_pool): ModuleList(
      (0): ModuleList(
        (0): GraphConv()
      )
    )
    (conv_last_after_pool): ModuleList(
      (0): GraphConv()
    )
    (assign_conv_first_modules): ModuleList(
      (0): GraphConv()
    )
    (assign_conv_block_modules): ModuleList(
      (0): ModuleList(
        (0): GraphConv()
      )
    )
    (assign_conv_last_modules): ModuleList(
      (0): GraphConv()
    )
    (assign_pred_modules): ModuleList(
      (0): Linear(in_features=140, out_features=12, bias=True)
    )
  )
)
2024-10-10 15:48:26,590 - root - INFO - train: torch.Size([4195, 51, 1, 30]), torch.Size([4195, 51, 1, 30])
2024-10-10 15:48:26,590 - root - INFO - val: torch.Size([1027, 51, 1, 30]), torch.Size([1027, 51, 1, 30])
2024-10-10 15:48:26,592 - root - INFO - 训练集文件data/SWAT/train_swat_gcn.npz
2024-10-10 15:48:26,623 - root - INFO - Grelen(
  (graph_learner): Graph_learner(
    (mlp1): MLP(
      (fc1): Linear(in_features=30, out_features=64, bias=True)
      (fc2): Linear(in_features=64, out_features=64, bias=True)
      (bn): BatchNorm1d(64, eps=1e-05, momentum=0.1, affine=True, track_running_stats=True)
    )
    (Wq): Linear(in_features=64, out_features=128, bias=True)
    (Wk): Linear(in_features=64, out_features=128, bias=True)
  )
  (linear1): Linear(in_features=1, out_features=64, bias=True)
  (encoder_model): ModuleList(
    (0-2): 3 x EncoderModel(
      (gcn_layers): ModuleList(
        (0): SoftPoolingGcnEncoder(
          (conv_first): GraphConv()
          (conv_block): ModuleList(
            (0): GraphConv()
          )
          (conv_last): GraphConv()
          (act): ReLU()
          (pred_model): Sequential(
            (0): Linear(in_features=384, out_features=50, bias=True)
            (1): ReLU()
            (2): Linear(in_features=50, out_features=2, bias=True)
          )
          (conv_first_after_pool): ModuleList(
            (0): GraphConv()
          )
          (conv_block_after_pool): ModuleList(
            (0): ModuleList(
              (0): GraphConv()
            )
          )
          (conv_last_after_pool): ModuleList(
            (0): GraphConv()
          )
          (assign_conv_first_modules): ModuleList(
            (0): GraphConv()
          )
          (assign_conv_block_modules): ModuleList(
            (0): ModuleList(
              (0): GraphConv()
            )
          )
          (assign_conv_last_modules): ModuleList(
            (0): GraphConv()
          )
          (assign_pred_modules): ModuleList(
            (0): Linear(in_features=140, out_features=12, bias=True)
          )
        )
      )
      (projection_layer): Linear(in_features=2, out_features=3264, bias=True)
    )
  )
  (linear_out): Linear(in_features=64, out_features=1, bias=True)
  (soft_pooling_encoder): SoftPoolingGcnEncoder(
    (conv_first): GraphConv()
    (conv_block): ModuleList(
      (0): GraphConv()
    )
    (conv_last): GraphConv()
    (act): ReLU()
    (pred_model): Sequential(
      (0): Linear(in_features=384, out_features=50, bias=True)
      (1): ReLU()
      (2): Linear(in_features=50, out_features=2, bias=True)
    )
    (conv_first_after_pool): ModuleList(
      (0): GraphConv()
    )
    (conv_block_after_pool): ModuleList(
      (0): ModuleList(
        (0): GraphConv()
      )
    )
    (conv_last_after_pool): ModuleList(
      (0): GraphConv()
    )
    (assign_conv_first_modules): ModuleList(
      (0): GraphConv()
    )
    (assign_conv_block_modules): ModuleList(
      (0): ModuleList(
        (0): GraphConv()
      )
    )
    (assign_conv_last_modules): ModuleList(
      (0): GraphConv()
    )
    (assign_pred_modules): ModuleList(
      (0): Linear(in_features=140, out_features=12, bias=True)
    )
  )
)
2024-10-10 15:49:09,431 - root - INFO - train: torch.Size([4195, 51, 1, 30]), torch.Size([4195, 51, 1, 30])
2024-10-10 15:49:09,432 - root - INFO - val: torch.Size([1027, 51, 1, 30]), torch.Size([1027, 51, 1, 30])
2024-10-10 15:49:09,433 - root - INFO - 训练集文件data/SWAT/train_swat_gcn.npz
2024-10-10 15:49:09,460 - root - INFO - Grelen(
  (graph_learner): Graph_learner(
    (mlp1): MLP(
      (fc1): Linear(in_features=30, out_features=64, bias=True)
      (fc2): Linear(in_features=64, out_features=64, bias=True)
      (bn): BatchNorm1d(64, eps=1e-05, momentum=0.1, affine=True, track_running_stats=True)
    )
    (Wq): Linear(in_features=64, out_features=128, bias=True)
    (Wk): Linear(in_features=64, out_features=128, bias=True)
  )
  (linear1): Linear(in_features=1, out_features=64, bias=True)
  (encoder_model): ModuleList(
    (0-2): 3 x EncoderModel(
      (gcn_layers): ModuleList(
        (0): SoftPoolingGcnEncoder(
          (conv_first): GraphConv()
          (conv_block): ModuleList(
            (0): GraphConv()
          )
          (conv_last): GraphConv()
          (act): ReLU()
          (pred_model): Sequential(
            (0): Linear(in_features=384, out_features=50, bias=True)
            (1): ReLU()
            (2): Linear(in_features=50, out_features=2, bias=True)
          )
          (conv_first_after_pool): ModuleList(
            (0): GraphConv()
          )
          (conv_block_after_pool): ModuleList(
            (0): ModuleList(
              (0): GraphConv()
            )
          )
          (conv_last_after_pool): ModuleList(
            (0): GraphConv()
          )
          (assign_conv_first_modules): ModuleList(
            (0): GraphConv()
          )
          (assign_conv_block_modules): ModuleList(
            (0): ModuleList(
              (0): GraphConv()
            )
          )
          (assign_conv_last_modules): ModuleList(
            (0): GraphConv()
          )
          (assign_pred_modules): ModuleList(
            (0): Linear(in_features=140, out_features=12, bias=True)
          )
        )
      )
      (projection_layer): Linear(in_features=2, out_features=3264, bias=True)
    )
  )
  (linear_out): Linear(in_features=64, out_features=1, bias=True)
  (soft_pooling_encoder): SoftPoolingGcnEncoder(
    (conv_first): GraphConv()
    (conv_block): ModuleList(
      (0): GraphConv()
    )
    (conv_last): GraphConv()
    (act): ReLU()
    (pred_model): Sequential(
      (0): Linear(in_features=384, out_features=50, bias=True)
      (1): ReLU()
      (2): Linear(in_features=50, out_features=2, bias=True)
    )
    (conv_first_after_pool): ModuleList(
      (0): GraphConv()
    )
    (conv_block_after_pool): ModuleList(
      (0): ModuleList(
        (0): GraphConv()
      )
    )
    (conv_last_after_pool): ModuleList(
      (0): GraphConv()
    )
    (assign_conv_first_modules): ModuleList(
      (0): GraphConv()
    )
    (assign_conv_block_modules): ModuleList(
      (0): ModuleList(
        (0): GraphConv()
      )
    )
    (assign_conv_last_modules): ModuleList(
      (0): GraphConv()
    )
    (assign_pred_modules): ModuleList(
      (0): Linear(in_features=140, out_features=12, bias=True)
    )
  )
)
2024-10-10 15:50:59,923 - root - INFO - train: torch.Size([4195, 51, 1, 30]), torch.Size([4195, 51, 1, 30])
2024-10-10 15:50:59,924 - root - INFO - val: torch.Size([1027, 51, 1, 30]), torch.Size([1027, 51, 1, 30])
2024-10-10 15:50:59,925 - root - INFO - 训练集文件data/SWAT/train_swat_gcn.npz
2024-10-10 15:50:59,954 - root - INFO - Grelen(
  (graph_learner): Graph_learner(
    (mlp1): MLP(
      (fc1): Linear(in_features=30, out_features=64, bias=True)
      (fc2): Linear(in_features=64, out_features=64, bias=True)
      (bn): BatchNorm1d(64, eps=1e-05, momentum=0.1, affine=True, track_running_stats=True)
    )
    (Wq): Linear(in_features=64, out_features=128, bias=True)
    (Wk): Linear(in_features=64, out_features=128, bias=True)
  )
  (linear1): Linear(in_features=1, out_features=64, bias=True)
  (encoder_model): ModuleList(
    (0-2): 3 x EncoderModel(
      (gcn_layers): ModuleList(
        (0): SoftPoolingGcnEncoder(
          (conv_first): GraphConv()
          (conv_block): ModuleList(
            (0): GraphConv()
          )
          (conv_last): GraphConv()
          (act): ReLU()
          (pred_model): Sequential(
            (0): Linear(in_features=384, out_features=50, bias=True)
            (1): ReLU()
            (2): Linear(in_features=50, out_features=2, bias=True)
          )
          (conv_first_after_pool): ModuleList(
            (0): GraphConv()
          )
          (conv_block_after_pool): ModuleList(
            (0): ModuleList(
              (0): GraphConv()
            )
          )
          (conv_last_after_pool): ModuleList(
            (0): GraphConv()
          )
          (assign_conv_first_modules): ModuleList(
            (0): GraphConv()
          )
          (assign_conv_block_modules): ModuleList(
            (0): ModuleList(
              (0): GraphConv()
            )
          )
          (assign_conv_last_modules): ModuleList(
            (0): GraphConv()
          )
          (assign_pred_modules): ModuleList(
            (0): Linear(in_features=140, out_features=12, bias=True)
          )
        )
      )
      (projection_layer): Linear(in_features=2, out_features=3264, bias=True)
    )
  )
  (linear_out): Linear(in_features=64, out_features=1, bias=True)
  (soft_pooling_encoder): SoftPoolingGcnEncoder(
    (conv_first): GraphConv()
    (conv_block): ModuleList(
      (0): GraphConv()
    )
    (conv_last): GraphConv()
    (act): ReLU()
    (pred_model): Sequential(
      (0): Linear(in_features=384, out_features=50, bias=True)
      (1): ReLU()
      (2): Linear(in_features=50, out_features=2, bias=True)
    )
    (conv_first_after_pool): ModuleList(
      (0): GraphConv()
    )
    (conv_block_after_pool): ModuleList(
      (0): ModuleList(
        (0): GraphConv()
      )
    )
    (conv_last_after_pool): ModuleList(
      (0): GraphConv()
    )
    (assign_conv_first_modules): ModuleList(
      (0): GraphConv()
    )
    (assign_conv_block_modules): ModuleList(
      (0): ModuleList(
        (0): GraphConv()
      )
    )
    (assign_conv_last_modules): ModuleList(
      (0): GraphConv()
    )
    (assign_pred_modules): ModuleList(
      (0): Linear(in_features=140, out_features=12, bias=True)
    )
  )
)
2024-10-10 15:51:17,317 - root - INFO - train: torch.Size([4195, 51, 1, 30]), torch.Size([4195, 51, 1, 30])
2024-10-10 15:51:17,317 - root - INFO - val: torch.Size([1027, 51, 1, 30]), torch.Size([1027, 51, 1, 30])
2024-10-10 15:51:17,318 - root - INFO - 训练集文件data/SWAT/train_swat_gcn.npz
2024-10-10 15:51:17,345 - root - INFO - Grelen(
  (graph_learner): Graph_learner(
    (mlp1): MLP(
      (fc1): Linear(in_features=30, out_features=64, bias=True)
      (fc2): Linear(in_features=64, out_features=64, bias=True)
      (bn): BatchNorm1d(64, eps=1e-05, momentum=0.1, affine=True, track_running_stats=True)
    )
    (Wq): Linear(in_features=64, out_features=128, bias=True)
    (Wk): Linear(in_features=64, out_features=128, bias=True)
  )
  (linear1): Linear(in_features=1, out_features=64, bias=True)
  (encoder_model): ModuleList(
    (0-2): 3 x EncoderModel(
      (gcn_layers): ModuleList(
        (0): SoftPoolingGcnEncoder(
          (conv_first): GraphConv()
          (conv_block): ModuleList(
            (0): GraphConv()
          )
          (conv_last): GraphConv()
          (act): ReLU()
          (pred_model): Sequential(
            (0): Linear(in_features=384, out_features=50, bias=True)
            (1): ReLU()
            (2): Linear(in_features=50, out_features=2, bias=True)
          )
          (conv_first_after_pool): ModuleList(
            (0): GraphConv()
          )
          (conv_block_after_pool): ModuleList(
            (0): ModuleList(
              (0): GraphConv()
            )
          )
          (conv_last_after_pool): ModuleList(
            (0): GraphConv()
          )
          (assign_conv_first_modules): ModuleList(
            (0): GraphConv()
          )
          (assign_conv_block_modules): ModuleList(
            (0): ModuleList(
              (0): GraphConv()
            )
          )
          (assign_conv_last_modules): ModuleList(
            (0): GraphConv()
          )
          (assign_pred_modules): ModuleList(
            (0): Linear(in_features=140, out_features=12, bias=True)
          )
        )
      )
      (projection_layer): Linear(in_features=2, out_features=3264, bias=True)
    )
  )
  (linear_out): Linear(in_features=64, out_features=1, bias=True)
  (soft_pooling_encoder): SoftPoolingGcnEncoder(
    (conv_first): GraphConv()
    (conv_block): ModuleList(
      (0): GraphConv()
    )
    (conv_last): GraphConv()
    (act): ReLU()
    (pred_model): Sequential(
      (0): Linear(in_features=384, out_features=50, bias=True)
      (1): ReLU()
      (2): Linear(in_features=50, out_features=2, bias=True)
    )
    (conv_first_after_pool): ModuleList(
      (0): GraphConv()
    )
    (conv_block_after_pool): ModuleList(
      (0): ModuleList(
        (0): GraphConv()
      )
    )
    (conv_last_after_pool): ModuleList(
      (0): GraphConv()
    )
    (assign_conv_first_modules): ModuleList(
      (0): GraphConv()
    )
    (assign_conv_block_modules): ModuleList(
      (0): ModuleList(
        (0): GraphConv()
      )
    )
    (assign_conv_last_modules): ModuleList(
      (0): GraphConv()
    )
    (assign_pred_modules): ModuleList(
      (0): Linear(in_features=140, out_features=12, bias=True)
    )
  )
)
2024-10-10 15:53:53,121 - root - INFO - train: torch.Size([4195, 51, 1, 30]), torch.Size([4195, 51, 1, 30])
2024-10-10 15:53:53,121 - root - INFO - val: torch.Size([1027, 51, 1, 30]), torch.Size([1027, 51, 1, 30])
2024-10-10 15:53:53,122 - root - INFO - 训练集文件data/SWAT/train_swat_gcn.npz
2024-10-10 15:53:53,150 - root - INFO - Grelen(
  (graph_learner): Graph_learner(
    (mlp1): MLP(
      (fc1): Linear(in_features=30, out_features=64, bias=True)
      (fc2): Linear(in_features=64, out_features=64, bias=True)
      (bn): BatchNorm1d(64, eps=1e-05, momentum=0.1, affine=True, track_running_stats=True)
    )
    (Wq): Linear(in_features=64, out_features=128, bias=True)
    (Wk): Linear(in_features=64, out_features=128, bias=True)
  )
  (linear1): Linear(in_features=1, out_features=64, bias=True)
  (encoder_model): ModuleList(
    (0-2): 3 x EncoderModel(
      (gcn_layers): ModuleList(
        (0): SoftPoolingGcnEncoder(
          (conv_first): GraphConv()
          (conv_block): ModuleList(
            (0): GraphConv()
          )
          (conv_last): GraphConv()
          (act): ReLU()
          (pred_model): Sequential(
            (0): Linear(in_features=384, out_features=50, bias=True)
            (1): ReLU()
            (2): Linear(in_features=50, out_features=2, bias=True)
          )
          (conv_first_after_pool): ModuleList(
            (0): GraphConv()
          )
          (conv_block_after_pool): ModuleList(
            (0): ModuleList(
              (0): GraphConv()
            )
          )
          (conv_last_after_pool): ModuleList(
            (0): GraphConv()
          )
          (assign_conv_first_modules): ModuleList(
            (0): GraphConv()
          )
          (assign_conv_block_modules): ModuleList(
            (0): ModuleList(
              (0): GraphConv()
            )
          )
          (assign_conv_last_modules): ModuleList(
            (0): GraphConv()
          )
          (assign_pred_modules): ModuleList(
            (0): Linear(in_features=140, out_features=12, bias=True)
          )
        )
      )
      (projection_layer): Linear(in_features=2, out_features=3264, bias=True)
    )
  )
  (linear_out): Linear(in_features=64, out_features=1, bias=True)
  (soft_pooling_encoder): SoftPoolingGcnEncoder(
    (conv_first): GraphConv()
    (conv_block): ModuleList(
      (0): GraphConv()
    )
    (conv_last): GraphConv()
    (act): ReLU()
    (pred_model): Sequential(
      (0): Linear(in_features=384, out_features=50, bias=True)
      (1): ReLU()
      (2): Linear(in_features=50, out_features=2, bias=True)
    )
    (conv_first_after_pool): ModuleList(
      (0): GraphConv()
    )
    (conv_block_after_pool): ModuleList(
      (0): ModuleList(
        (0): GraphConv()
      )
    )
    (conv_last_after_pool): ModuleList(
      (0): GraphConv()
    )
    (assign_conv_first_modules): ModuleList(
      (0): GraphConv()
    )
    (assign_conv_block_modules): ModuleList(
      (0): ModuleList(
        (0): GraphConv()
      )
    )
    (assign_conv_last_modules): ModuleList(
      (0): GraphConv()
    )
    (assign_pred_modules): ModuleList(
      (0): Linear(in_features=140, out_features=12, bias=True)
    )
  )
)
2024-10-10 15:59:05,927 - root - INFO - train: torch.Size([4195, 51, 1, 30]), torch.Size([4195, 51, 1, 30])
2024-10-10 15:59:05,928 - root - INFO - val: torch.Size([1027, 51, 1, 30]), torch.Size([1027, 51, 1, 30])
2024-10-10 15:59:05,928 - root - INFO - 训练集文件data/SWAT/train_swat_gcn.npz
2024-10-10 15:59:05,963 - root - INFO - Grelen(
  (graph_learner): Graph_learner(
    (mlp1): MLP(
      (fc1): Linear(in_features=30, out_features=64, bias=True)
      (fc2): Linear(in_features=64, out_features=64, bias=True)
      (bn): BatchNorm1d(64, eps=1e-05, momentum=0.1, affine=True, track_running_stats=True)
    )
    (Wq): Linear(in_features=64, out_features=128, bias=True)
    (Wk): Linear(in_features=64, out_features=128, bias=True)
  )
  (linear1): Linear(in_features=1, out_features=64, bias=True)
  (encoder_model): ModuleList(
    (0-2): 3 x EncoderModel(
      (gcn_layers): ModuleList(
        (0): SoftPoolingGcnEncoder(
          (conv_first): GraphConv()
          (conv_block): ModuleList(
            (0): GraphConv()
          )
          (conv_last): GraphConv()
          (act): ReLU()
          (pred_model): Sequential(
            (0): Linear(in_features=384, out_features=50, bias=True)
            (1): ReLU()
            (2): Linear(in_features=50, out_features=2, bias=True)
          )
          (conv_first_after_pool): ModuleList(
            (0): GraphConv()
          )
          (conv_block_after_pool): ModuleList(
            (0): ModuleList(
              (0): GraphConv()
            )
          )
          (conv_last_after_pool): ModuleList(
            (0): GraphConv()
          )
          (assign_conv_first_modules): ModuleList(
            (0): GraphConv()
          )
          (assign_conv_block_modules): ModuleList(
            (0): ModuleList(
              (0): GraphConv()
            )
          )
          (assign_conv_last_modules): ModuleList(
            (0): GraphConv()
          )
          (assign_pred_modules): ModuleList(
            (0): Linear(in_features=140, out_features=12, bias=True)
          )
        )
      )
      (projection_layer): Linear(in_features=2, out_features=3264, bias=True)
    )
  )
  (linear_out): Linear(in_features=64, out_features=1, bias=True)
  (soft_pooling_encoder): SoftPoolingGcnEncoder(
    (conv_first): GraphConv()
    (conv_block): ModuleList(
      (0): GraphConv()
    )
    (conv_last): GraphConv()
    (act): ReLU()
    (pred_model): Sequential(
      (0): Linear(in_features=384, out_features=50, bias=True)
      (1): ReLU()
      (2): Linear(in_features=50, out_features=2, bias=True)
    )
    (conv_first_after_pool): ModuleList(
      (0): GraphConv()
    )
    (conv_block_after_pool): ModuleList(
      (0): ModuleList(
        (0): GraphConv()
      )
    )
    (conv_last_after_pool): ModuleList(
      (0): GraphConv()
    )
    (assign_conv_first_modules): ModuleList(
      (0): GraphConv()
    )
    (assign_conv_block_modules): ModuleList(
      (0): ModuleList(
        (0): GraphConv()
      )
    )
    (assign_conv_last_modules): ModuleList(
      (0): GraphConv()
    )
    (assign_pred_modules): ModuleList(
      (0): Linear(in_features=140, out_features=12, bias=True)
    )
  )
)
2024-10-10 15:59:36,155 - root - INFO - train: torch.Size([4195, 51, 1, 30]), torch.Size([4195, 51, 1, 30])
2024-10-10 15:59:36,155 - root - INFO - val: torch.Size([1027, 51, 1, 30]), torch.Size([1027, 51, 1, 30])
2024-10-10 15:59:36,157 - root - INFO - 训练集文件data/SWAT/train_swat_gcn.npz
2024-10-10 15:59:36,186 - root - INFO - Grelen(
  (graph_learner): Graph_learner(
    (mlp1): MLP(
      (fc1): Linear(in_features=30, out_features=64, bias=True)
      (fc2): Linear(in_features=64, out_features=64, bias=True)
      (bn): BatchNorm1d(64, eps=1e-05, momentum=0.1, affine=True, track_running_stats=True)
    )
    (Wq): Linear(in_features=64, out_features=128, bias=True)
    (Wk): Linear(in_features=64, out_features=128, bias=True)
  )
  (linear1): Linear(in_features=1, out_features=64, bias=True)
  (encoder_model): ModuleList(
    (0-2): 3 x EncoderModel(
      (gcn_layers): ModuleList(
        (0): SoftPoolingGcnEncoder(
          (conv_first): GraphConv()
          (conv_block): ModuleList(
            (0): GraphConv()
          )
          (conv_last): GraphConv()
          (act): ReLU()
          (pred_model): Sequential(
            (0): Linear(in_features=384, out_features=50, bias=True)
            (1): ReLU()
            (2): Linear(in_features=50, out_features=2, bias=True)
          )
          (conv_first_after_pool): ModuleList(
            (0): GraphConv()
          )
          (conv_block_after_pool): ModuleList(
            (0): ModuleList(
              (0): GraphConv()
            )
          )
          (conv_last_after_pool): ModuleList(
            (0): GraphConv()
          )
          (assign_conv_first_modules): ModuleList(
            (0): GraphConv()
          )
          (assign_conv_block_modules): ModuleList(
            (0): ModuleList(
              (0): GraphConv()
            )
          )
          (assign_conv_last_modules): ModuleList(
            (0): GraphConv()
          )
          (assign_pred_modules): ModuleList(
            (0): Linear(in_features=140, out_features=12, bias=True)
          )
        )
      )
      (projection_layer): Linear(in_features=2, out_features=3264, bias=True)
    )
  )
  (linear_out): Linear(in_features=64, out_features=1, bias=True)
  (soft_pooling_encoder): SoftPoolingGcnEncoder(
    (conv_first): GraphConv()
    (conv_block): ModuleList(
      (0): GraphConv()
    )
    (conv_last): GraphConv()
    (act): ReLU()
    (pred_model): Sequential(
      (0): Linear(in_features=384, out_features=50, bias=True)
      (1): ReLU()
      (2): Linear(in_features=50, out_features=2, bias=True)
    )
    (conv_first_after_pool): ModuleList(
      (0): GraphConv()
    )
    (conv_block_after_pool): ModuleList(
      (0): ModuleList(
        (0): GraphConv()
      )
    )
    (conv_last_after_pool): ModuleList(
      (0): GraphConv()
    )
    (assign_conv_first_modules): ModuleList(
      (0): GraphConv()
    )
    (assign_conv_block_modules): ModuleList(
      (0): ModuleList(
        (0): GraphConv()
      )
    )
    (assign_conv_last_modules): ModuleList(
      (0): GraphConv()
    )
    (assign_pred_modules): ModuleList(
      (0): Linear(in_features=140, out_features=12, bias=True)
    )
  )
)
2024-10-10 16:02:21,915 - root - INFO - train: torch.Size([4195, 51, 1, 30]), torch.Size([4195, 51, 1, 30])
2024-10-10 16:02:21,916 - root - INFO - val: torch.Size([1027, 51, 1, 30]), torch.Size([1027, 51, 1, 30])
2024-10-10 16:02:21,917 - root - INFO - 训练集文件data/SWAT/train_swat_gcn.npz
2024-10-10 16:02:21,943 - root - INFO - Grelen(
  (graph_learner): Graph_learner(
    (mlp1): MLP(
      (fc1): Linear(in_features=30, out_features=64, bias=True)
      (fc2): Linear(in_features=64, out_features=64, bias=True)
      (bn): BatchNorm1d(64, eps=1e-05, momentum=0.1, affine=True, track_running_stats=True)
    )
    (Wq): Linear(in_features=64, out_features=128, bias=True)
    (Wk): Linear(in_features=64, out_features=128, bias=True)
  )
  (linear1): Linear(in_features=1, out_features=64, bias=True)
  (encoder_model): ModuleList(
    (0-2): 3 x EncoderModel(
      (gcn_layers): ModuleList(
        (0): SoftPoolingGcnEncoder(
          (conv_first): GraphConv()
          (conv_block): ModuleList(
            (0): GraphConv()
          )
          (conv_last): GraphConv()
          (act): ReLU()
          (pred_model): Sequential(
            (0): Linear(in_features=384, out_features=50, bias=True)
            (1): ReLU()
            (2): Linear(in_features=50, out_features=2, bias=True)
          )
          (conv_first_after_pool): ModuleList(
            (0): GraphConv()
          )
          (conv_block_after_pool): ModuleList(
            (0): ModuleList(
              (0): GraphConv()
            )
          )
          (conv_last_after_pool): ModuleList(
            (0): GraphConv()
          )
          (assign_conv_first_modules): ModuleList(
            (0): GraphConv()
          )
          (assign_conv_block_modules): ModuleList(
            (0): ModuleList(
              (0): GraphConv()
            )
          )
          (assign_conv_last_modules): ModuleList(
            (0): GraphConv()
          )
          (assign_pred_modules): ModuleList(
            (0): Linear(in_features=140, out_features=12, bias=True)
          )
        )
      )
      (projection_layer): Linear(in_features=2, out_features=3264, bias=True)
    )
  )
  (linear_out): Linear(in_features=64, out_features=1, bias=True)
  (soft_pooling_encoder): SoftPoolingGcnEncoder(
    (conv_first): GraphConv()
    (conv_block): ModuleList(
      (0): GraphConv()
    )
    (conv_last): GraphConv()
    (act): ReLU()
    (pred_model): Sequential(
      (0): Linear(in_features=384, out_features=50, bias=True)
      (1): ReLU()
      (2): Linear(in_features=50, out_features=2, bias=True)
    )
    (conv_first_after_pool): ModuleList(
      (0): GraphConv()
    )
    (conv_block_after_pool): ModuleList(
      (0): ModuleList(
        (0): GraphConv()
      )
    )
    (conv_last_after_pool): ModuleList(
      (0): GraphConv()
    )
    (assign_conv_first_modules): ModuleList(
      (0): GraphConv()
    )
    (assign_conv_block_modules): ModuleList(
      (0): ModuleList(
        (0): GraphConv()
      )
    )
    (assign_conv_last_modules): ModuleList(
      (0): GraphConv()
    )
    (assign_pred_modules): ModuleList(
      (0): Linear(in_features=140, out_features=12, bias=True)
    )
  )
)
2024-10-10 16:04:09,876 - root - INFO - train: torch.Size([4195, 51, 1, 30]), torch.Size([4195, 51, 1, 30])
2024-10-10 16:04:09,876 - root - INFO - val: torch.Size([1027, 51, 1, 30]), torch.Size([1027, 51, 1, 30])
2024-10-10 16:04:09,878 - root - INFO - 训练集文件data/SWAT/train_swat_gcn.npz
2024-10-10 16:04:09,903 - root - INFO - Grelen(
  (graph_learner): Graph_learner(
    (mlp1): MLP(
      (fc1): Linear(in_features=30, out_features=64, bias=True)
      (fc2): Linear(in_features=64, out_features=64, bias=True)
      (bn): BatchNorm1d(64, eps=1e-05, momentum=0.1, affine=True, track_running_stats=True)
    )
    (Wq): Linear(in_features=64, out_features=128, bias=True)
    (Wk): Linear(in_features=64, out_features=128, bias=True)
  )
  (linear1): Linear(in_features=1, out_features=64, bias=True)
  (encoder_model): ModuleList(
    (0-2): 3 x EncoderModel(
      (gcn_layers): ModuleList(
        (0): SoftPoolingGcnEncoder(
          (conv_first): GraphConv()
          (conv_block): ModuleList(
            (0): GraphConv()
          )
          (conv_last): GraphConv()
          (act): ReLU()
          (pred_model): Sequential(
            (0): Linear(in_features=384, out_features=50, bias=True)
            (1): ReLU()
            (2): Linear(in_features=50, out_features=2, bias=True)
          )
          (conv_first_after_pool): ModuleList(
            (0): GraphConv()
          )
          (conv_block_after_pool): ModuleList(
            (0): ModuleList(
              (0): GraphConv()
            )
          )
          (conv_last_after_pool): ModuleList(
            (0): GraphConv()
          )
          (assign_conv_first_modules): ModuleList(
            (0): GraphConv()
          )
          (assign_conv_block_modules): ModuleList(
            (0): ModuleList(
              (0): GraphConv()
            )
          )
          (assign_conv_last_modules): ModuleList(
            (0): GraphConv()
          )
          (assign_pred_modules): ModuleList(
            (0): Linear(in_features=140, out_features=12, bias=True)
          )
        )
      )
      (projection_layer): Linear(in_features=2, out_features=3264, bias=True)
    )
  )
  (linear_out): Linear(in_features=64, out_features=1, bias=True)
  (soft_pooling_encoder): SoftPoolingGcnEncoder(
    (conv_first): GraphConv()
    (conv_block): ModuleList(
      (0): GraphConv()
    )
    (conv_last): GraphConv()
    (act): ReLU()
    (pred_model): Sequential(
      (0): Linear(in_features=384, out_features=50, bias=True)
      (1): ReLU()
      (2): Linear(in_features=50, out_features=2, bias=True)
    )
    (conv_first_after_pool): ModuleList(
      (0): GraphConv()
    )
    (conv_block_after_pool): ModuleList(
      (0): ModuleList(
        (0): GraphConv()
      )
    )
    (conv_last_after_pool): ModuleList(
      (0): GraphConv()
    )
    (assign_conv_first_modules): ModuleList(
      (0): GraphConv()
    )
    (assign_conv_block_modules): ModuleList(
      (0): ModuleList(
        (0): GraphConv()
      )
    )
    (assign_conv_last_modules): ModuleList(
      (0): GraphConv()
    )
    (assign_pred_modules): ModuleList(
      (0): Linear(in_features=140, out_features=12, bias=True)
    )
  )
)
2024-10-10 16:08:34,913 - root - INFO - train: torch.Size([4195, 51, 1, 30]), torch.Size([4195, 51, 1, 30])
2024-10-10 16:08:34,914 - root - INFO - val: torch.Size([1027, 51, 1, 30]), torch.Size([1027, 51, 1, 30])
2024-10-10 16:08:34,915 - root - INFO - 训练集文件data/SWAT/train_swat_gcn.npz
2024-10-10 16:08:34,940 - root - INFO - Grelen(
  (graph_learner): Graph_learner(
    (mlp1): MLP(
      (fc1): Linear(in_features=30, out_features=64, bias=True)
      (fc2): Linear(in_features=64, out_features=64, bias=True)
      (bn): BatchNorm1d(64, eps=1e-05, momentum=0.1, affine=True, track_running_stats=True)
    )
    (Wq): Linear(in_features=64, out_features=128, bias=True)
    (Wk): Linear(in_features=64, out_features=128, bias=True)
  )
  (linear1): Linear(in_features=1, out_features=64, bias=True)
  (encoder_model): ModuleList(
    (0-2): 3 x EncoderModel(
      (gcn_layers): ModuleList(
        (0): SoftPoolingGcnEncoder(
          (conv_first): GraphConv()
          (conv_block): ModuleList(
            (0): GraphConv()
          )
          (conv_last): GraphConv()
          (act): ReLU()
          (pred_model): Sequential(
            (0): Linear(in_features=384, out_features=50, bias=True)
            (1): ReLU()
            (2): Linear(in_features=50, out_features=2, bias=True)
          )
          (conv_first_after_pool): ModuleList(
            (0): GraphConv()
          )
          (conv_block_after_pool): ModuleList(
            (0): ModuleList(
              (0): GraphConv()
            )
          )
          (conv_last_after_pool): ModuleList(
            (0): GraphConv()
          )
          (assign_conv_first_modules): ModuleList(
            (0): GraphConv()
          )
          (assign_conv_block_modules): ModuleList(
            (0): ModuleList(
              (0): GraphConv()
            )
          )
          (assign_conv_last_modules): ModuleList(
            (0): GraphConv()
          )
          (assign_pred_modules): ModuleList(
            (0): Linear(in_features=140, out_features=12, bias=True)
          )
        )
      )
      (projection_layer): Linear(in_features=2, out_features=3264, bias=True)
    )
  )
  (linear_out): Linear(in_features=64, out_features=1, bias=True)
  (soft_pooling_encoder): SoftPoolingGcnEncoder(
    (conv_first): GraphConv()
    (conv_block): ModuleList(
      (0): GraphConv()
    )
    (conv_last): GraphConv()
    (act): ReLU()
    (pred_model): Sequential(
      (0): Linear(in_features=384, out_features=50, bias=True)
      (1): ReLU()
      (2): Linear(in_features=50, out_features=2, bias=True)
    )
    (conv_first_after_pool): ModuleList(
      (0): GraphConv()
    )
    (conv_block_after_pool): ModuleList(
      (0): ModuleList(
        (0): GraphConv()
      )
    )
    (conv_last_after_pool): ModuleList(
      (0): GraphConv()
    )
    (assign_conv_first_modules): ModuleList(
      (0): GraphConv()
    )
    (assign_conv_block_modules): ModuleList(
      (0): ModuleList(
        (0): GraphConv()
      )
    )
    (assign_conv_last_modules): ModuleList(
      (0): GraphConv()
    )
    (assign_pred_modules): ModuleList(
      (0): Linear(in_features=140, out_features=12, bias=True)
    )
  )
)
2024-10-10 16:08:50,007 - root - INFO - train: torch.Size([4195, 51, 1, 30]), torch.Size([4195, 51, 1, 30])
2024-10-10 16:08:50,007 - root - INFO - val: torch.Size([1027, 51, 1, 30]), torch.Size([1027, 51, 1, 30])
2024-10-10 16:08:50,008 - root - INFO - 训练集文件data/SWAT/train_swat_gcn.npz
2024-10-10 16:08:50,035 - root - INFO - Grelen(
  (graph_learner): Graph_learner(
    (mlp1): MLP(
      (fc1): Linear(in_features=30, out_features=64, bias=True)
      (fc2): Linear(in_features=64, out_features=64, bias=True)
      (bn): BatchNorm1d(64, eps=1e-05, momentum=0.1, affine=True, track_running_stats=True)
    )
    (Wq): Linear(in_features=64, out_features=128, bias=True)
    (Wk): Linear(in_features=64, out_features=128, bias=True)
  )
  (linear1): Linear(in_features=1, out_features=64, bias=True)
  (encoder_model): ModuleList(
    (0-2): 3 x EncoderModel(
      (gcn_layers): ModuleList(
        (0): SoftPoolingGcnEncoder(
          (conv_first): GraphConv()
          (conv_block): ModuleList(
            (0): GraphConv()
          )
          (conv_last): GraphConv()
          (act): ReLU()
          (pred_model): Sequential(
            (0): Linear(in_features=384, out_features=50, bias=True)
            (1): ReLU()
            (2): Linear(in_features=50, out_features=2, bias=True)
          )
          (conv_first_after_pool): ModuleList(
            (0): GraphConv()
          )
          (conv_block_after_pool): ModuleList(
            (0): ModuleList(
              (0): GraphConv()
            )
          )
          (conv_last_after_pool): ModuleList(
            (0): GraphConv()
          )
          (assign_conv_first_modules): ModuleList(
            (0): GraphConv()
          )
          (assign_conv_block_modules): ModuleList(
            (0): ModuleList(
              (0): GraphConv()
            )
          )
          (assign_conv_last_modules): ModuleList(
            (0): GraphConv()
          )
          (assign_pred_modules): ModuleList(
            (0): Linear(in_features=140, out_features=12, bias=True)
          )
        )
      )
      (projection_layer): Linear(in_features=2, out_features=3264, bias=True)
    )
  )
  (linear_out): Linear(in_features=64, out_features=1, bias=True)
  (soft_pooling_encoder): SoftPoolingGcnEncoder(
    (conv_first): GraphConv()
    (conv_block): ModuleList(
      (0): GraphConv()
    )
    (conv_last): GraphConv()
    (act): ReLU()
    (pred_model): Sequential(
      (0): Linear(in_features=384, out_features=50, bias=True)
      (1): ReLU()
      (2): Linear(in_features=50, out_features=2, bias=True)
    )
    (conv_first_after_pool): ModuleList(
      (0): GraphConv()
    )
    (conv_block_after_pool): ModuleList(
      (0): ModuleList(
        (0): GraphConv()
      )
    )
    (conv_last_after_pool): ModuleList(
      (0): GraphConv()
    )
    (assign_conv_first_modules): ModuleList(
      (0): GraphConv()
    )
    (assign_conv_block_modules): ModuleList(
      (0): ModuleList(
        (0): GraphConv()
      )
    )
    (assign_conv_last_modules): ModuleList(
      (0): GraphConv()
    )
    (assign_pred_modules): ModuleList(
      (0): Linear(in_features=140, out_features=12, bias=True)
    )
  )
)
2024-10-10 16:50:25,615 - root - INFO - train: torch.Size([4195, 51, 1, 30]), torch.Size([4195, 51, 1, 30])
2024-10-10 16:50:25,615 - root - INFO - val: torch.Size([1027, 51, 1, 30]), torch.Size([1027, 51, 1, 30])
2024-10-10 16:50:25,616 - root - INFO - 训练集文件data/SWAT/train_swat_gcn.npz
2024-10-10 16:50:25,652 - root - INFO - Grelen(
  (graph_learner): Graph_learner(
    (mlp1): MLP(
      (fc1): Linear(in_features=30, out_features=64, bias=True)
      (fc2): Linear(in_features=64, out_features=64, bias=True)
      (bn): BatchNorm1d(64, eps=1e-05, momentum=0.1, affine=True, track_running_stats=True)
    )
    (Wq): Linear(in_features=64, out_features=128, bias=True)
    (Wk): Linear(in_features=64, out_features=128, bias=True)
  )
  (linear1): Linear(in_features=1, out_features=64, bias=True)
  (encoder_model): ModuleList(
    (0-2): 3 x EncoderModel(
      (gcn_layers): ModuleList(
        (0): SoftPoolingGcnEncoder(
          (conv_first): GraphConv()
          (conv_block): ModuleList(
            (0): GraphConv()
          )
          (conv_last): GraphConv()
          (act): ReLU()
          (pred_model): Sequential(
            (0): Linear(in_features=384, out_features=50, bias=True)
            (1): ReLU()
            (2): Linear(in_features=50, out_features=2, bias=True)
          )
          (conv_first_after_pool): ModuleList(
            (0): GraphConv()
          )
          (conv_block_after_pool): ModuleList(
            (0): ModuleList(
              (0): GraphConv()
            )
          )
          (conv_last_after_pool): ModuleList(
            (0): GraphConv()
          )
          (assign_conv_first_modules): ModuleList(
            (0): GraphConv()
          )
          (assign_conv_block_modules): ModuleList(
            (0): ModuleList(
              (0): GraphConv()
            )
          )
          (assign_conv_last_modules): ModuleList(
            (0): GraphConv()
          )
          (assign_pred_modules): ModuleList(
            (0): Linear(in_features=140, out_features=12, bias=True)
          )
        )
      )
      (projection_layer): Linear(in_features=2, out_features=3264, bias=True)
    )
  )
  (linear_out): Linear(in_features=64, out_features=1, bias=True)
  (soft_pooling_encoder): SoftPoolingGcnEncoder(
    (conv_first): GraphConv()
    (conv_block): ModuleList(
      (0): GraphConv()
    )
    (conv_last): GraphConv()
    (act): ReLU()
    (pred_model): Sequential(
      (0): Linear(in_features=384, out_features=50, bias=True)
      (1): ReLU()
      (2): Linear(in_features=50, out_features=2, bias=True)
    )
    (conv_first_after_pool): ModuleList(
      (0): GraphConv()
    )
    (conv_block_after_pool): ModuleList(
      (0): ModuleList(
        (0): GraphConv()
      )
    )
    (conv_last_after_pool): ModuleList(
      (0): GraphConv()
    )
    (assign_conv_first_modules): ModuleList(
      (0): GraphConv()
    )
    (assign_conv_block_modules): ModuleList(
      (0): ModuleList(
        (0): GraphConv()
      )
    )
    (assign_conv_last_modules): ModuleList(
      (0): GraphConv()
    )
    (assign_pred_modules): ModuleList(
      (0): Linear(in_features=140, out_features=12, bias=True)
    )
  )
)
2024-10-10 16:53:21,251 - root - INFO - train: torch.Size([4195, 51, 1, 30]), torch.Size([4195, 51, 1, 30])
2024-10-10 16:53:21,251 - root - INFO - val: torch.Size([1027, 51, 1, 30]), torch.Size([1027, 51, 1, 30])
2024-10-10 16:53:21,252 - root - INFO - 训练集文件data/SWAT/train_swat_gcn.npz
2024-10-10 16:53:21,307 - root - INFO - Grelen(
  (graph_learner): Graph_learner(
    (mlp1): MLP(
      (fc1): Linear(in_features=30, out_features=64, bias=True)
      (fc2): Linear(in_features=64, out_features=64, bias=True)
      (bn): BatchNorm1d(64, eps=1e-05, momentum=0.1, affine=True, track_running_stats=True)
    )
    (Wq): Linear(in_features=64, out_features=128, bias=True)
    (Wk): Linear(in_features=64, out_features=128, bias=True)
  )
  (linear1): Linear(in_features=1, out_features=64, bias=True)
  (encoder_model): ModuleList(
    (0-2): 3 x EncoderModel(
      (gcn_layers): ModuleList(
        (0): SoftPoolingGcnEncoder(
          (conv_first): GraphConv()
          (conv_block): ModuleList(
            (0): GraphConv()
          )
          (conv_last): GraphConv()
          (act): ReLU()
          (pred_model): Sequential(
            (0): Linear(in_features=384, out_features=50, bias=True)
            (1): ReLU()
            (2): Linear(in_features=50, out_features=2, bias=True)
          )
          (conv_first_after_pool): ModuleList(
            (0): GraphConv()
          )
          (conv_block_after_pool): ModuleList(
            (0): ModuleList(
              (0): GraphConv()
            )
          )
          (conv_last_after_pool): ModuleList(
            (0): GraphConv()
          )
          (assign_conv_first_modules): ModuleList(
            (0): GraphConv()
          )
          (assign_conv_block_modules): ModuleList(
            (0): ModuleList(
              (0): GraphConv()
            )
          )
          (assign_conv_last_modules): ModuleList(
            (0): GraphConv()
          )
          (assign_pred_modules): ModuleList(
            (0): Linear(in_features=140, out_features=12, bias=True)
          )
        )
      )
      (projection_layer): Linear(in_features=2, out_features=3264, bias=True)
    )
  )
  (linear_out): Linear(in_features=64, out_features=1, bias=True)
  (soft_pooling_encoder): SoftPoolingGcnEncoder(
    (conv_first): GraphConv()
    (conv_block): ModuleList(
      (0): GraphConv()
    )
    (conv_last): GraphConv()
    (act): ReLU()
    (pred_model): Sequential(
      (0): Linear(in_features=384, out_features=50, bias=True)
      (1): ReLU()
      (2): Linear(in_features=50, out_features=2, bias=True)
    )
    (conv_first_after_pool): ModuleList(
      (0): GraphConv()
    )
    (conv_block_after_pool): ModuleList(
      (0): ModuleList(
        (0): GraphConv()
      )
    )
    (conv_last_after_pool): ModuleList(
      (0): GraphConv()
    )
    (assign_conv_first_modules): ModuleList(
      (0): GraphConv()
    )
    (assign_conv_block_modules): ModuleList(
      (0): ModuleList(
        (0): GraphConv()
      )
    )
    (assign_conv_last_modules): ModuleList(
      (0): GraphConv()
    )
    (assign_pred_modules): ModuleList(
      (0): Linear(in_features=140, out_features=12, bias=True)
    )
  )
)
2024-10-10 16:59:34,489 - root - INFO - train: torch.Size([4195, 51, 1, 30]), torch.Size([4195, 51, 1, 30])
2024-10-10 16:59:34,490 - root - INFO - val: torch.Size([1027, 51, 1, 30]), torch.Size([1027, 51, 1, 30])
2024-10-10 16:59:34,491 - root - INFO - 训练集文件data/SWAT/train_swat_gcn.npz
2024-10-10 16:59:34,534 - root - INFO - Grelen(
  (graph_learner): Graph_learner(
    (mlp1): MLP(
      (fc1): Linear(in_features=30, out_features=64, bias=True)
      (fc2): Linear(in_features=64, out_features=64, bias=True)
      (bn): BatchNorm1d(64, eps=1e-05, momentum=0.1, affine=True, track_running_stats=True)
    )
    (Wq): Linear(in_features=64, out_features=128, bias=True)
    (Wk): Linear(in_features=64, out_features=128, bias=True)
  )
  (linear1): Linear(in_features=1, out_features=64, bias=True)
  (encoder_model): ModuleList(
    (0-2): 3 x EncoderModel(
      (gcn_layers): ModuleList(
        (0): SoftPoolingGcnEncoder(
          (conv_first): GraphConv()
          (conv_block): ModuleList(
            (0): GraphConv()
          )
          (conv_last): GraphConv()
          (act): ReLU()
          (pred_model): Sequential(
            (0): Linear(in_features=384, out_features=50, bias=True)
            (1): ReLU()
            (2): Linear(in_features=50, out_features=2, bias=True)
          )
          (conv_first_after_pool): ModuleList(
            (0): GraphConv()
          )
          (conv_block_after_pool): ModuleList(
            (0): ModuleList(
              (0): GraphConv()
            )
          )
          (conv_last_after_pool): ModuleList(
            (0): GraphConv()
          )
          (assign_conv_first_modules): ModuleList(
            (0): GraphConv()
          )
          (assign_conv_block_modules): ModuleList(
            (0): ModuleList(
              (0): GraphConv()
            )
          )
          (assign_conv_last_modules): ModuleList(
            (0): GraphConv()
          )
          (assign_pred_modules): ModuleList(
            (0): Linear(in_features=140, out_features=12, bias=True)
          )
        )
      )
      (projection_layer): Linear(in_features=2, out_features=3264, bias=True)
    )
  )
  (linear_out): Linear(in_features=64, out_features=1, bias=True)
  (soft_pooling_encoder): SoftPoolingGcnEncoder(
    (conv_first): GraphConv()
    (conv_block): ModuleList(
      (0): GraphConv()
    )
    (conv_last): GraphConv()
    (act): ReLU()
    (pred_model): Sequential(
      (0): Linear(in_features=384, out_features=50, bias=True)
      (1): ReLU()
      (2): Linear(in_features=50, out_features=2, bias=True)
    )
    (conv_first_after_pool): ModuleList(
      (0): GraphConv()
    )
    (conv_block_after_pool): ModuleList(
      (0): ModuleList(
        (0): GraphConv()
      )
    )
    (conv_last_after_pool): ModuleList(
      (0): GraphConv()
    )
    (assign_conv_first_modules): ModuleList(
      (0): GraphConv()
    )
    (assign_conv_block_modules): ModuleList(
      (0): ModuleList(
        (0): GraphConv()
      )
    )
    (assign_conv_last_modules): ModuleList(
      (0): GraphConv()
    )
    (assign_pred_modules): ModuleList(
      (0): Linear(in_features=140, out_features=12, bias=True)
    )
  )
)
2024-10-10 17:27:54,424 - root - INFO - train: torch.Size([4195, 51, 1, 30]), torch.Size([4195, 51, 1, 30])
2024-10-10 17:27:54,425 - root - INFO - val: torch.Size([1027, 51, 1, 30]), torch.Size([1027, 51, 1, 30])
2024-10-10 17:27:54,426 - root - INFO - 训练集文件data/SWAT/train_swat_gcn.npz
2024-10-10 17:27:54,483 - root - INFO - Grelen(
  (graph_learner): Graph_learner(
    (mlp1): MLP(
      (fc1): Linear(in_features=30, out_features=64, bias=True)
      (fc2): Linear(in_features=64, out_features=64, bias=True)
      (bn): BatchNorm1d(64, eps=1e-05, momentum=0.1, affine=True, track_running_stats=True)
    )
    (Wq): Linear(in_features=64, out_features=128, bias=True)
    (Wk): Linear(in_features=64, out_features=128, bias=True)
  )
  (linear1): Linear(in_features=1, out_features=64, bias=True)
  (encoder_model): ModuleList(
    (0-2): 3 x EncoderModel(
      (gcn_layers): ModuleList(
        (0): SoftPoolingGcnEncoder(
          (conv_first): GraphConv()
          (conv_block): ModuleList(
            (0): GraphConv()
          )
          (conv_last): GraphConv()
          (act): ReLU()
          (pred_model): Sequential(
            (0): Linear(in_features=384, out_features=50, bias=True)
            (1): ReLU()
            (2): Linear(in_features=50, out_features=2, bias=True)
          )
          (conv_first_after_pool): ModuleList(
            (0): GraphConv()
          )
          (conv_block_after_pool): ModuleList(
            (0): ModuleList(
              (0): GraphConv()
            )
          )
          (conv_last_after_pool): ModuleList(
            (0): GraphConv()
          )
          (assign_conv_first_modules): ModuleList(
            (0): GraphConv()
          )
          (assign_conv_block_modules): ModuleList(
            (0): ModuleList(
              (0): GraphConv()
            )
          )
          (assign_conv_last_modules): ModuleList(
            (0): GraphConv()
          )
          (assign_pred_modules): ModuleList(
            (0): Linear(in_features=140, out_features=12, bias=True)
          )
        )
      )
      (projection_layer): Linear(in_features=2, out_features=3264, bias=True)
    )
  )
  (linear_out): Linear(in_features=64, out_features=1, bias=True)
  (soft_pooling_encoder): SoftPoolingGcnEncoder(
    (conv_first): GraphConv()
    (conv_block): ModuleList(
      (0): GraphConv()
    )
    (conv_last): GraphConv()
    (act): ReLU()
    (pred_model): Sequential(
      (0): Linear(in_features=384, out_features=50, bias=True)
      (1): ReLU()
      (2): Linear(in_features=50, out_features=2, bias=True)
    )
    (conv_first_after_pool): ModuleList(
      (0): GraphConv()
    )
    (conv_block_after_pool): ModuleList(
      (0): ModuleList(
        (0): GraphConv()
      )
    )
    (conv_last_after_pool): ModuleList(
      (0): GraphConv()
    )
    (assign_conv_first_modules): ModuleList(
      (0): GraphConv()
    )
    (assign_conv_block_modules): ModuleList(
      (0): ModuleList(
        (0): GraphConv()
      )
    )
    (assign_conv_last_modules): ModuleList(
      (0): GraphConv()
    )
    (assign_pred_modules): ModuleList(
      (0): Linear(in_features=140, out_features=12, bias=True)
    )
  )
)
2024-10-10 19:47:21,111 - root - INFO - train: torch.Size([4195, 51, 1, 30]), torch.Size([4195, 51, 1, 30])
2024-10-10 19:47:21,111 - root - INFO - val: torch.Size([1027, 51, 1, 30]), torch.Size([1027, 51, 1, 30])
2024-10-10 19:47:21,113 - root - INFO - 训练集文件data/SWAT/train_swat_gcn.npz
2024-10-10 19:47:21,152 - root - INFO - Grelen(
  (graph_learner): Graph_learner(
    (mlp1): MLP(
      (fc1): Linear(in_features=30, out_features=64, bias=True)
      (fc2): Linear(in_features=64, out_features=64, bias=True)
      (bn): BatchNorm1d(64, eps=1e-05, momentum=0.1, affine=True, track_running_stats=True)
    )
    (Wq): Linear(in_features=64, out_features=128, bias=True)
    (Wk): Linear(in_features=64, out_features=128, bias=True)
  )
  (linear1): Linear(in_features=1, out_features=64, bias=True)
  (encoder_model): ModuleList(
    (0-2): 3 x EncoderModel(
      (gcn_layers): ModuleList(
        (0): SoftPoolingGcnEncoder(
          (conv_first): GraphConv()
          (conv_block): ModuleList(
            (0): GraphConv()
          )
          (conv_last): GraphConv()
          (act): ReLU()
          (pred_model): Sequential(
            (0): Linear(in_features=384, out_features=50, bias=True)
            (1): ReLU()
            (2): Linear(in_features=50, out_features=2, bias=True)
          )
          (conv_first_after_pool): ModuleList(
            (0): GraphConv()
          )
          (conv_block_after_pool): ModuleList(
            (0): ModuleList(
              (0): GraphConv()
            )
          )
          (conv_last_after_pool): ModuleList(
            (0): GraphConv()
          )
          (assign_conv_first_modules): ModuleList(
            (0): GraphConv()
          )
          (assign_conv_block_modules): ModuleList(
            (0): ModuleList(
              (0): GraphConv()
            )
          )
          (assign_conv_last_modules): ModuleList(
            (0): GraphConv()
          )
          (assign_pred_modules): ModuleList(
            (0): Linear(in_features=140, out_features=12, bias=True)
          )
        )
      )
      (projection_layer): Linear(in_features=2, out_features=3264, bias=True)
    )
  )
  (linear_out): Linear(in_features=64, out_features=1, bias=True)
  (soft_pooling_encoder): SoftPoolingGcnEncoder(
    (conv_first): GraphConv()
    (conv_block): ModuleList(
      (0): GraphConv()
    )
    (conv_last): GraphConv()
    (act): ReLU()
    (pred_model): Sequential(
      (0): Linear(in_features=384, out_features=50, bias=True)
      (1): ReLU()
      (2): Linear(in_features=50, out_features=2, bias=True)
    )
    (conv_first_after_pool): ModuleList(
      (0): GraphConv()
    )
    (conv_block_after_pool): ModuleList(
      (0): ModuleList(
        (0): GraphConv()
      )
    )
    (conv_last_after_pool): ModuleList(
      (0): GraphConv()
    )
    (assign_conv_first_modules): ModuleList(
      (0): GraphConv()
    )
    (assign_conv_block_modules): ModuleList(
      (0): ModuleList(
        (0): GraphConv()
      )
    )
    (assign_conv_last_modules): ModuleList(
      (0): GraphConv()
    )
    (assign_pred_modules): ModuleList(
      (0): Linear(in_features=140, out_features=12, bias=True)
    )
  )
)
2024-10-10 19:50:12,239 - root - INFO - train: torch.Size([4195, 51, 1, 30]), torch.Size([4195, 51, 1, 30])
2024-10-10 19:50:12,240 - root - INFO - val: torch.Size([1027, 51, 1, 30]), torch.Size([1027, 51, 1, 30])
2024-10-10 19:50:12,241 - root - INFO - 训练集文件data/SWAT/train_swat_gcn.npz
2024-10-10 19:50:12,281 - root - INFO - Grelen(
  (graph_learner): Graph_learner(
    (mlp1): MLP(
      (fc1): Linear(in_features=30, out_features=64, bias=True)
      (fc2): Linear(in_features=64, out_features=64, bias=True)
      (bn): BatchNorm1d(64, eps=1e-05, momentum=0.1, affine=True, track_running_stats=True)
    )
    (Wq): Linear(in_features=64, out_features=128, bias=True)
    (Wk): Linear(in_features=64, out_features=128, bias=True)
  )
  (linear1): Linear(in_features=1, out_features=64, bias=True)
  (encoder_model): ModuleList(
    (0-2): 3 x EncoderModel(
      (gcn_layers): ModuleList(
        (0): SoftPoolingGcnEncoder(
          (conv_first): GraphConv()
          (conv_block): ModuleList(
            (0): GraphConv()
          )
          (conv_last): GraphConv()
          (act): ReLU()
          (pred_model): Sequential(
            (0): Linear(in_features=384, out_features=50, bias=True)
            (1): ReLU()
            (2): Linear(in_features=50, out_features=2, bias=True)
          )
          (conv_first_after_pool): ModuleList(
            (0): GraphConv()
          )
          (conv_block_after_pool): ModuleList(
            (0): ModuleList(
              (0): GraphConv()
            )
          )
          (conv_last_after_pool): ModuleList(
            (0): GraphConv()
          )
          (assign_conv_first_modules): ModuleList(
            (0): GraphConv()
          )
          (assign_conv_block_modules): ModuleList(
            (0): ModuleList(
              (0): GraphConv()
            )
          )
          (assign_conv_last_modules): ModuleList(
            (0): GraphConv()
          )
          (assign_pred_modules): ModuleList(
            (0): Linear(in_features=140, out_features=12, bias=True)
          )
        )
      )
      (projection_layer): Linear(in_features=2, out_features=3264, bias=True)
    )
  )
  (linear_out): Linear(in_features=64, out_features=1, bias=True)
  (soft_pooling_encoder): SoftPoolingGcnEncoder(
    (conv_first): GraphConv()
    (conv_block): ModuleList(
      (0): GraphConv()
    )
    (conv_last): GraphConv()
    (act): ReLU()
    (pred_model): Sequential(
      (0): Linear(in_features=384, out_features=50, bias=True)
      (1): ReLU()
      (2): Linear(in_features=50, out_features=2, bias=True)
    )
    (conv_first_after_pool): ModuleList(
      (0): GraphConv()
    )
    (conv_block_after_pool): ModuleList(
      (0): ModuleList(
        (0): GraphConv()
      )
    )
    (conv_last_after_pool): ModuleList(
      (0): GraphConv()
    )
    (assign_conv_first_modules): ModuleList(
      (0): GraphConv()
    )
    (assign_conv_block_modules): ModuleList(
      (0): ModuleList(
        (0): GraphConv()
      )
    )
    (assign_conv_last_modules): ModuleList(
      (0): GraphConv()
    )
    (assign_pred_modules): ModuleList(
      (0): Linear(in_features=140, out_features=12, bias=True)
    )
  )
)
2024-10-10 19:54:09,868 - root - INFO - train: torch.Size([4195, 51, 1, 30]), torch.Size([4195, 51, 1, 30])
2024-10-10 19:54:09,868 - root - INFO - val: torch.Size([1027, 51, 1, 30]), torch.Size([1027, 51, 1, 30])
2024-10-10 19:54:09,870 - root - INFO - 训练集文件data/SWAT/train_swat_gcn.npz
2024-10-10 19:54:09,898 - root - INFO - Grelen(
  (graph_learner): Graph_learner(
    (mlp1): MLP(
      (fc1): Linear(in_features=30, out_features=64, bias=True)
      (fc2): Linear(in_features=64, out_features=64, bias=True)
      (bn): BatchNorm1d(64, eps=1e-05, momentum=0.1, affine=True, track_running_stats=True)
    )
    (Wq): Linear(in_features=64, out_features=128, bias=True)
    (Wk): Linear(in_features=64, out_features=128, bias=True)
  )
  (linear1): Linear(in_features=1, out_features=64, bias=True)
  (encoder_model): ModuleList(
    (0-2): 3 x EncoderModel(
      (gcn_layers): ModuleList(
        (0): SoftPoolingGcnEncoder(
          (conv_first): GraphConv()
          (conv_block): ModuleList(
            (0): GraphConv()
          )
          (conv_last): GraphConv()
          (act): ReLU()
          (pred_model): Sequential(
            (0): Linear(in_features=384, out_features=50, bias=True)
            (1): ReLU()
            (2): Linear(in_features=50, out_features=2, bias=True)
          )
          (conv_first_after_pool): ModuleList(
            (0): GraphConv()
          )
          (conv_block_after_pool): ModuleList(
            (0): ModuleList(
              (0): GraphConv()
            )
          )
          (conv_last_after_pool): ModuleList(
            (0): GraphConv()
          )
          (assign_conv_first_modules): ModuleList(
            (0): GraphConv()
          )
          (assign_conv_block_modules): ModuleList(
            (0): ModuleList(
              (0): GraphConv()
            )
          )
          (assign_conv_last_modules): ModuleList(
            (0): GraphConv()
          )
          (assign_pred_modules): ModuleList(
            (0): Linear(in_features=140, out_features=12, bias=True)
          )
        )
      )
      (projection_layer): Linear(in_features=2, out_features=3264, bias=True)
    )
  )
  (linear_out): Linear(in_features=64, out_features=1, bias=True)
  (soft_pooling_encoder): SoftPoolingGcnEncoder(
    (conv_first): GraphConv()
    (conv_block): ModuleList(
      (0): GraphConv()
    )
    (conv_last): GraphConv()
    (act): ReLU()
    (pred_model): Sequential(
      (0): Linear(in_features=384, out_features=50, bias=True)
      (1): ReLU()
      (2): Linear(in_features=50, out_features=2, bias=True)
    )
    (conv_first_after_pool): ModuleList(
      (0): GraphConv()
    )
    (conv_block_after_pool): ModuleList(
      (0): ModuleList(
        (0): GraphConv()
      )
    )
    (conv_last_after_pool): ModuleList(
      (0): GraphConv()
    )
    (assign_conv_first_modules): ModuleList(
      (0): GraphConv()
    )
    (assign_conv_block_modules): ModuleList(
      (0): ModuleList(
        (0): GraphConv()
      )
    )
    (assign_conv_last_modules): ModuleList(
      (0): GraphConv()
    )
    (assign_pred_modules): ModuleList(
      (0): Linear(in_features=140, out_features=12, bias=True)
    )
  )
)
2024-10-10 19:56:16,090 - root - INFO - train: torch.Size([4195, 51, 1, 30]), torch.Size([4195, 51, 1, 30])
2024-10-10 19:56:16,090 - root - INFO - val: torch.Size([1027, 51, 1, 30]), torch.Size([1027, 51, 1, 30])
2024-10-10 19:56:16,091 - root - INFO - 训练集文件data/SWAT/train_swat_gcn.npz
2024-10-10 19:56:16,134 - root - INFO - Grelen(
  (graph_learner): Graph_learner(
    (mlp1): MLP(
      (fc1): Linear(in_features=30, out_features=64, bias=True)
      (fc2): Linear(in_features=64, out_features=64, bias=True)
      (bn): BatchNorm1d(64, eps=1e-05, momentum=0.1, affine=True, track_running_stats=True)
    )
    (Wq): Linear(in_features=64, out_features=128, bias=True)
    (Wk): Linear(in_features=64, out_features=128, bias=True)
  )
  (linear1): Linear(in_features=1, out_features=64, bias=True)
  (encoder_model): ModuleList(
    (0-2): 3 x EncoderModel(
      (gcn_layers): ModuleList(
        (0): SoftPoolingGcnEncoder(
          (conv_first): GraphConv()
          (conv_block): ModuleList(
            (0): GraphConv()
          )
          (conv_last): GraphConv()
          (act): ReLU()
          (pred_model): Sequential(
            (0): Linear(in_features=384, out_features=50, bias=True)
            (1): ReLU()
            (2): Linear(in_features=50, out_features=2, bias=True)
          )
          (conv_first_after_pool): ModuleList(
            (0): GraphConv()
          )
          (conv_block_after_pool): ModuleList(
            (0): ModuleList(
              (0): GraphConv()
            )
          )
          (conv_last_after_pool): ModuleList(
            (0): GraphConv()
          )
          (assign_conv_first_modules): ModuleList(
            (0): GraphConv()
          )
          (assign_conv_block_modules): ModuleList(
            (0): ModuleList(
              (0): GraphConv()
            )
          )
          (assign_conv_last_modules): ModuleList(
            (0): GraphConv()
          )
          (assign_pred_modules): ModuleList(
            (0): Linear(in_features=140, out_features=12, bias=True)
          )
        )
      )
      (projection_layer): Linear(in_features=2, out_features=3264, bias=True)
    )
  )
  (linear_out): Linear(in_features=64, out_features=1, bias=True)
  (soft_pooling_encoder): SoftPoolingGcnEncoder(
    (conv_first): GraphConv()
    (conv_block): ModuleList(
      (0): GraphConv()
    )
    (conv_last): GraphConv()
    (act): ReLU()
    (pred_model): Sequential(
      (0): Linear(in_features=384, out_features=50, bias=True)
      (1): ReLU()
      (2): Linear(in_features=50, out_features=2, bias=True)
    )
    (conv_first_after_pool): ModuleList(
      (0): GraphConv()
    )
    (conv_block_after_pool): ModuleList(
      (0): ModuleList(
        (0): GraphConv()
      )
    )
    (conv_last_after_pool): ModuleList(
      (0): GraphConv()
    )
    (assign_conv_first_modules): ModuleList(
      (0): GraphConv()
    )
    (assign_conv_block_modules): ModuleList(
      (0): ModuleList(
        (0): GraphConv()
      )
    )
    (assign_conv_last_modules): ModuleList(
      (0): GraphConv()
    )
    (assign_pred_modules): ModuleList(
      (0): Linear(in_features=140, out_features=12, bias=True)
    )
  )
)
2024-10-10 19:59:35,224 - root - INFO - train: torch.Size([4195, 51, 1, 30]), torch.Size([4195, 51, 1, 30])
2024-10-10 19:59:35,224 - root - INFO - val: torch.Size([1027, 51, 1, 30]), torch.Size([1027, 51, 1, 30])
2024-10-10 19:59:35,225 - root - INFO - 训练集文件data/SWAT/train_swat_gcn.npz
2024-10-10 19:59:35,278 - root - INFO - Grelen(
  (graph_learner): Graph_learner(
    (mlp1): MLP(
      (fc1): Linear(in_features=30, out_features=64, bias=True)
      (fc2): Linear(in_features=64, out_features=64, bias=True)
      (bn): BatchNorm1d(64, eps=1e-05, momentum=0.1, affine=True, track_running_stats=True)
    )
    (Wq): Linear(in_features=64, out_features=128, bias=True)
    (Wk): Linear(in_features=64, out_features=128, bias=True)
  )
  (linear1): Linear(in_features=1, out_features=64, bias=True)
  (encoder_model): ModuleList(
    (0-2): 3 x EncoderModel(
      (gcn_layers): ModuleList(
        (0): SoftPoolingGcnEncoder(
          (conv_first): GraphConv()
          (conv_block): ModuleList(
            (0): GraphConv()
          )
          (conv_last): GraphConv()
          (act): ReLU()
          (pred_model): Sequential(
            (0): Linear(in_features=384, out_features=50, bias=True)
            (1): ReLU()
            (2): Linear(in_features=50, out_features=2, bias=True)
          )
          (conv_first_after_pool): ModuleList(
            (0): GraphConv()
          )
          (conv_block_after_pool): ModuleList(
            (0): ModuleList(
              (0): GraphConv()
            )
          )
          (conv_last_after_pool): ModuleList(
            (0): GraphConv()
          )
          (assign_conv_first_modules): ModuleList(
            (0): GraphConv()
          )
          (assign_conv_block_modules): ModuleList(
            (0): ModuleList(
              (0): GraphConv()
            )
          )
          (assign_conv_last_modules): ModuleList(
            (0): GraphConv()
          )
          (assign_pred_modules): ModuleList(
            (0): Linear(in_features=140, out_features=12, bias=True)
          )
        )
      )
      (projection_layer): Linear(in_features=2, out_features=3264, bias=True)
    )
  )
  (linear_out): Linear(in_features=64, out_features=1, bias=True)
  (soft_pooling_encoder): SoftPoolingGcnEncoder(
    (conv_first): GraphConv()
    (conv_block): ModuleList(
      (0): GraphConv()
    )
    (conv_last): GraphConv()
    (act): ReLU()
    (pred_model): Sequential(
      (0): Linear(in_features=384, out_features=50, bias=True)
      (1): ReLU()
      (2): Linear(in_features=50, out_features=2, bias=True)
    )
    (conv_first_after_pool): ModuleList(
      (0): GraphConv()
    )
    (conv_block_after_pool): ModuleList(
      (0): ModuleList(
        (0): GraphConv()
      )
    )
    (conv_last_after_pool): ModuleList(
      (0): GraphConv()
    )
    (assign_conv_first_modules): ModuleList(
      (0): GraphConv()
    )
    (assign_conv_block_modules): ModuleList(
      (0): ModuleList(
        (0): GraphConv()
      )
    )
    (assign_conv_last_modules): ModuleList(
      (0): GraphConv()
    )
    (assign_pred_modules): ModuleList(
      (0): Linear(in_features=140, out_features=12, bias=True)
    )
  )
)
2024-10-10 20:05:30,664 - root - INFO - train: torch.Size([4195, 51, 1, 30]), torch.Size([4195, 51, 1, 30])
2024-10-10 20:05:30,664 - root - INFO - val: torch.Size([1027, 51, 1, 30]), torch.Size([1027, 51, 1, 30])
2024-10-10 20:05:30,665 - root - INFO - 训练集文件data/SWAT/train_swat_gcn.npz
2024-10-10 20:05:30,722 - root - INFO - Grelen(
  (graph_learner): Graph_learner(
    (mlp1): MLP(
      (fc1): Linear(in_features=30, out_features=64, bias=True)
      (fc2): Linear(in_features=64, out_features=64, bias=True)
      (bn): BatchNorm1d(64, eps=1e-05, momentum=0.1, affine=True, track_running_stats=True)
    )
    (Wq): Linear(in_features=64, out_features=128, bias=True)
    (Wk): Linear(in_features=64, out_features=128, bias=True)
  )
  (linear1): Linear(in_features=1, out_features=64, bias=True)
  (encoder_model): ModuleList(
    (0-2): 3 x EncoderModel(
      (gcn_layers): ModuleList(
        (0): SoftPoolingGcnEncoder(
          (conv_first): GraphConv()
          (conv_block): ModuleList(
            (0): GraphConv()
          )
          (conv_last): GraphConv()
          (act): ReLU()
          (pred_model): Sequential(
            (0): Linear(in_features=384, out_features=50, bias=True)
            (1): ReLU()
            (2): Linear(in_features=50, out_features=2, bias=True)
          )
          (conv_first_after_pool): ModuleList(
            (0): GraphConv()
          )
          (conv_block_after_pool): ModuleList(
            (0): ModuleList(
              (0): GraphConv()
            )
          )
          (conv_last_after_pool): ModuleList(
            (0): GraphConv()
          )
          (assign_conv_first_modules): ModuleList(
            (0): GraphConv()
          )
          (assign_conv_block_modules): ModuleList(
            (0): ModuleList(
              (0): GraphConv()
            )
          )
          (assign_conv_last_modules): ModuleList(
            (0): GraphConv()
          )
          (assign_pred_modules): ModuleList(
            (0): Linear(in_features=140, out_features=12, bias=True)
          )
        )
      )
      (projection_layer): Linear(in_features=2, out_features=3264, bias=True)
    )
  )
  (linear_out): Linear(in_features=64, out_features=1, bias=True)
  (soft_pooling_encoder): SoftPoolingGcnEncoder(
    (conv_first): GraphConv()
    (conv_block): ModuleList(
      (0): GraphConv()
    )
    (conv_last): GraphConv()
    (act): ReLU()
    (pred_model): Sequential(
      (0): Linear(in_features=384, out_features=50, bias=True)
      (1): ReLU()
      (2): Linear(in_features=50, out_features=2, bias=True)
    )
    (conv_first_after_pool): ModuleList(
      (0): GraphConv()
    )
    (conv_block_after_pool): ModuleList(
      (0): ModuleList(
        (0): GraphConv()
      )
    )
    (conv_last_after_pool): ModuleList(
      (0): GraphConv()
    )
    (assign_conv_first_modules): ModuleList(
      (0): GraphConv()
    )
    (assign_conv_block_modules): ModuleList(
      (0): ModuleList(
        (0): GraphConv()
      )
    )
    (assign_conv_last_modules): ModuleList(
      (0): GraphConv()
    )
    (assign_pred_modules): ModuleList(
      (0): Linear(in_features=140, out_features=12, bias=True)
    )
  )
)
2024-10-10 20:12:31,728 - root - INFO - train: torch.Size([4195, 51, 1, 30]), torch.Size([4195, 51, 1, 30])
2024-10-10 20:12:31,730 - root - INFO - val: torch.Size([1027, 51, 1, 30]), torch.Size([1027, 51, 1, 30])
2024-10-10 20:12:31,733 - root - INFO - 训练集文件data/SWAT/train_swat_gcn.npz
2024-10-10 20:12:31,774 - root - INFO - Grelen(
  (graph_learner): Graph_learner(
    (mlp1): MLP(
      (fc1): Linear(in_features=30, out_features=64, bias=True)
      (fc2): Linear(in_features=64, out_features=64, bias=True)
      (bn): BatchNorm1d(64, eps=1e-05, momentum=0.1, affine=True, track_running_stats=True)
    )
    (Wq): Linear(in_features=64, out_features=128, bias=True)
    (Wk): Linear(in_features=64, out_features=128, bias=True)
  )
  (linear1): Linear(in_features=1, out_features=64, bias=True)
  (encoder_model): ModuleList(
    (0-2): 3 x EncoderModel(
      (gcn_layers): ModuleList(
        (0): SoftPoolingGcnEncoder(
          (conv_first): GraphConv()
          (conv_block): ModuleList(
            (0): GraphConv()
          )
          (conv_last): GraphConv()
          (act): ReLU()
          (pred_model): Sequential(
            (0): Linear(in_features=384, out_features=50, bias=True)
            (1): ReLU()
            (2): Linear(in_features=50, out_features=2, bias=True)
          )
          (conv_first_after_pool): ModuleList(
            (0): GraphConv()
          )
          (conv_block_after_pool): ModuleList(
            (0): ModuleList(
              (0): GraphConv()
            )
          )
          (conv_last_after_pool): ModuleList(
            (0): GraphConv()
          )
          (assign_conv_first_modules): ModuleList(
            (0): GraphConv()
          )
          (assign_conv_block_modules): ModuleList(
            (0): ModuleList(
              (0): GraphConv()
            )
          )
          (assign_conv_last_modules): ModuleList(
            (0): GraphConv()
          )
          (assign_pred_modules): ModuleList(
            (0): Linear(in_features=140, out_features=12, bias=True)
          )
        )
      )
      (projection_layer): Linear(in_features=2, out_features=3264, bias=True)
    )
  )
  (linear_out): Linear(in_features=64, out_features=1, bias=True)
  (soft_pooling_encoder): SoftPoolingGcnEncoder(
    (conv_first): GraphConv()
    (conv_block): ModuleList(
      (0): GraphConv()
    )
    (conv_last): GraphConv()
    (act): ReLU()
    (pred_model): Sequential(
      (0): Linear(in_features=384, out_features=50, bias=True)
      (1): ReLU()
      (2): Linear(in_features=50, out_features=2, bias=True)
    )
    (conv_first_after_pool): ModuleList(
      (0): GraphConv()
    )
    (conv_block_after_pool): ModuleList(
      (0): ModuleList(
        (0): GraphConv()
      )
    )
    (conv_last_after_pool): ModuleList(
      (0): GraphConv()
    )
    (assign_conv_first_modules): ModuleList(
      (0): GraphConv()
    )
    (assign_conv_block_modules): ModuleList(
      (0): ModuleList(
        (0): GraphConv()
      )
    )
    (assign_conv_last_modules): ModuleList(
      (0): GraphConv()
    )
    (assign_pred_modules): ModuleList(
      (0): Linear(in_features=140, out_features=12, bias=True)
    )
  )
)
2024-10-10 20:15:04,490 - root - INFO - train: torch.Size([4195, 51, 1, 30]), torch.Size([4195, 51, 1, 30])
2024-10-10 20:15:04,491 - root - INFO - val: torch.Size([1027, 51, 1, 30]), torch.Size([1027, 51, 1, 30])
2024-10-10 20:15:04,492 - root - INFO - 训练集文件data/SWAT/train_swat_gcn.npz
2024-10-10 20:15:04,578 - root - INFO - Grelen(
  (graph_learner): Graph_learner(
    (mlp1): MLP(
      (fc1): Linear(in_features=30, out_features=64, bias=True)
      (fc2): Linear(in_features=64, out_features=64, bias=True)
      (bn): BatchNorm1d(64, eps=1e-05, momentum=0.1, affine=True, track_running_stats=True)
    )
    (Wq): Linear(in_features=64, out_features=128, bias=True)
    (Wk): Linear(in_features=64, out_features=128, bias=True)
  )
  (linear1): Linear(in_features=1, out_features=64, bias=True)
  (encoder_model): ModuleList(
    (0-2): 3 x EncoderModel(
      (gcn_layers): ModuleList(
        (0): SoftPoolingGcnEncoder(
          (conv_first): GraphConv()
          (conv_block): ModuleList(
            (0): GraphConv()
          )
          (conv_last): GraphConv()
          (act): ReLU()
          (pred_model): Sequential(
            (0): Linear(in_features=384, out_features=50, bias=True)
            (1): ReLU()
            (2): Linear(in_features=50, out_features=2, bias=True)
          )
          (conv_first_after_pool): ModuleList(
            (0): GraphConv()
          )
          (conv_block_after_pool): ModuleList(
            (0): ModuleList(
              (0): GraphConv()
            )
          )
          (conv_last_after_pool): ModuleList(
            (0): GraphConv()
          )
          (assign_conv_first_modules): ModuleList(
            (0): GraphConv()
          )
          (assign_conv_block_modules): ModuleList(
            (0): ModuleList(
              (0): GraphConv()
            )
          )
          (assign_conv_last_modules): ModuleList(
            (0): GraphConv()
          )
          (assign_pred_modules): ModuleList(
            (0): Linear(in_features=140, out_features=12, bias=True)
          )
        )
      )
      (projection_layer): Linear(in_features=2, out_features=3264, bias=True)
    )
  )
  (linear_out): Linear(in_features=64, out_features=1, bias=True)
  (soft_pooling_encoder): SoftPoolingGcnEncoder(
    (conv_first): GraphConv()
    (conv_block): ModuleList(
      (0): GraphConv()
    )
    (conv_last): GraphConv()
    (act): ReLU()
    (pred_model): Sequential(
      (0): Linear(in_features=384, out_features=50, bias=True)
      (1): ReLU()
      (2): Linear(in_features=50, out_features=2, bias=True)
    )
    (conv_first_after_pool): ModuleList(
      (0): GraphConv()
    )
    (conv_block_after_pool): ModuleList(
      (0): ModuleList(
        (0): GraphConv()
      )
    )
    (conv_last_after_pool): ModuleList(
      (0): GraphConv()
    )
    (assign_conv_first_modules): ModuleList(
      (0): GraphConv()
    )
    (assign_conv_block_modules): ModuleList(
      (0): ModuleList(
        (0): GraphConv()
      )
    )
    (assign_conv_last_modules): ModuleList(
      (0): GraphConv()
    )
    (assign_pred_modules): ModuleList(
      (0): Linear(in_features=140, out_features=12, bias=True)
    )
  )
)
2024-10-10 20:16:22,315 - root - INFO - train: torch.Size([4195, 51, 1, 30]), torch.Size([4195, 51, 1, 30])
2024-10-10 20:16:22,316 - root - INFO - val: torch.Size([1027, 51, 1, 30]), torch.Size([1027, 51, 1, 30])
2024-10-10 20:16:22,317 - root - INFO - 训练集文件data/SWAT/train_swat_gcn.npz
2024-10-10 20:16:22,391 - root - INFO - Grelen(
  (graph_learner): Graph_learner(
    (mlp1): MLP(
      (fc1): Linear(in_features=30, out_features=64, bias=True)
      (fc2): Linear(in_features=64, out_features=64, bias=True)
      (bn): BatchNorm1d(64, eps=1e-05, momentum=0.1, affine=True, track_running_stats=True)
    )
    (Wq): Linear(in_features=64, out_features=128, bias=True)
    (Wk): Linear(in_features=64, out_features=128, bias=True)
  )
  (linear1): Linear(in_features=1, out_features=64, bias=True)
  (encoder_model): ModuleList(
    (0-2): 3 x EncoderModel(
      (gcn_layers): ModuleList(
        (0): SoftPoolingGcnEncoder(
          (conv_first): GraphConv()
          (conv_block): ModuleList(
            (0): GraphConv()
          )
          (conv_last): GraphConv()
          (act): ReLU()
          (pred_model): Sequential(
            (0): Linear(in_features=384, out_features=50, bias=True)
            (1): ReLU()
            (2): Linear(in_features=50, out_features=2, bias=True)
          )
          (conv_first_after_pool): ModuleList(
            (0): GraphConv()
          )
          (conv_block_after_pool): ModuleList(
            (0): ModuleList(
              (0): GraphConv()
            )
          )
          (conv_last_after_pool): ModuleList(
            (0): GraphConv()
          )
          (assign_conv_first_modules): ModuleList(
            (0): GraphConv()
          )
          (assign_conv_block_modules): ModuleList(
            (0): ModuleList(
              (0): GraphConv()
            )
          )
          (assign_conv_last_modules): ModuleList(
            (0): GraphConv()
          )
          (assign_pred_modules): ModuleList(
            (0): Linear(in_features=140, out_features=12, bias=True)
          )
        )
      )
      (projection_layer): Linear(in_features=2, out_features=3264, bias=True)
    )
  )
  (linear_out): Linear(in_features=64, out_features=1, bias=True)
  (soft_pooling_encoder): SoftPoolingGcnEncoder(
    (conv_first): GraphConv()
    (conv_block): ModuleList(
      (0): GraphConv()
    )
    (conv_last): GraphConv()
    (act): ReLU()
    (pred_model): Sequential(
      (0): Linear(in_features=384, out_features=50, bias=True)
      (1): ReLU()
      (2): Linear(in_features=50, out_features=2, bias=True)
    )
    (conv_first_after_pool): ModuleList(
      (0): GraphConv()
    )
    (conv_block_after_pool): ModuleList(
      (0): ModuleList(
        (0): GraphConv()
      )
    )
    (conv_last_after_pool): ModuleList(
      (0): GraphConv()
    )
    (assign_conv_first_modules): ModuleList(
      (0): GraphConv()
    )
    (assign_conv_block_modules): ModuleList(
      (0): ModuleList(
        (0): GraphConv()
      )
    )
    (assign_conv_last_modules): ModuleList(
      (0): GraphConv()
    )
    (assign_pred_modules): ModuleList(
      (0): Linear(in_features=140, out_features=12, bias=True)
    )
  )
)
2024-10-10 20:19:28,755 - root - INFO - train: torch.Size([4195, 51, 1, 30]), torch.Size([4195, 51, 1, 30])
2024-10-10 20:19:28,756 - root - INFO - val: torch.Size([1027, 51, 1, 30]), torch.Size([1027, 51, 1, 30])
2024-10-10 20:19:28,757 - root - INFO - 训练集文件data/SWAT/train_swat_gcn.npz
2024-10-10 20:19:28,810 - root - INFO - Grelen(
  (graph_learner): Graph_learner(
    (mlp1): MLP(
      (fc1): Linear(in_features=30, out_features=64, bias=True)
      (fc2): Linear(in_features=64, out_features=64, bias=True)
      (bn): BatchNorm1d(64, eps=1e-05, momentum=0.1, affine=True, track_running_stats=True)
    )
    (Wq): Linear(in_features=64, out_features=128, bias=True)
    (Wk): Linear(in_features=64, out_features=128, bias=True)
  )
  (linear1): Linear(in_features=1, out_features=64, bias=True)
  (encoder_model): ModuleList(
    (0-2): 3 x EncoderModel(
      (gcn_layers): ModuleList(
        (0): SoftPoolingGcnEncoder(
          (conv_first): GraphConv()
          (conv_block): ModuleList(
            (0): GraphConv()
          )
          (conv_last): GraphConv()
          (act): ReLU()
          (pred_model): Sequential(
            (0): Linear(in_features=384, out_features=50, bias=True)
            (1): ReLU()
            (2): Linear(in_features=50, out_features=2, bias=True)
          )
          (conv_first_after_pool): ModuleList(
            (0): GraphConv()
          )
          (conv_block_after_pool): ModuleList(
            (0): ModuleList(
              (0): GraphConv()
            )
          )
          (conv_last_after_pool): ModuleList(
            (0): GraphConv()
          )
          (assign_conv_first_modules): ModuleList(
            (0): GraphConv()
          )
          (assign_conv_block_modules): ModuleList(
            (0): ModuleList(
              (0): GraphConv()
            )
          )
          (assign_conv_last_modules): ModuleList(
            (0): GraphConv()
          )
          (assign_pred_modules): ModuleList(
            (0): Linear(in_features=140, out_features=12, bias=True)
          )
        )
      )
      (projection_layer): Linear(in_features=2, out_features=3264, bias=True)
    )
  )
  (linear_out): Linear(in_features=64, out_features=1, bias=True)
  (soft_pooling_encoder): SoftPoolingGcnEncoder(
    (conv_first): GraphConv()
    (conv_block): ModuleList(
      (0): GraphConv()
    )
    (conv_last): GraphConv()
    (act): ReLU()
    (pred_model): Sequential(
      (0): Linear(in_features=384, out_features=50, bias=True)
      (1): ReLU()
      (2): Linear(in_features=50, out_features=2, bias=True)
    )
    (conv_first_after_pool): ModuleList(
      (0): GraphConv()
    )
    (conv_block_after_pool): ModuleList(
      (0): ModuleList(
        (0): GraphConv()
      )
    )
    (conv_last_after_pool): ModuleList(
      (0): GraphConv()
    )
    (assign_conv_first_modules): ModuleList(
      (0): GraphConv()
    )
    (assign_conv_block_modules): ModuleList(
      (0): ModuleList(
        (0): GraphConv()
      )
    )
    (assign_conv_last_modules): ModuleList(
      (0): GraphConv()
    )
    (assign_pred_modules): ModuleList(
      (0): Linear(in_features=140, out_features=12, bias=True)
    )
  )
)
2024-10-10 20:20:57,263 - root - INFO - train: torch.Size([4195, 51, 1, 30]), torch.Size([4195, 51, 1, 30])
2024-10-10 20:20:57,264 - root - INFO - val: torch.Size([1027, 51, 1, 30]), torch.Size([1027, 51, 1, 30])
2024-10-10 20:20:57,265 - root - INFO - 训练集文件data/SWAT/train_swat_gcn.npz
2024-10-10 20:20:57,334 - root - INFO - Grelen(
  (graph_learner): Graph_learner(
    (mlp1): MLP(
      (fc1): Linear(in_features=30, out_features=64, bias=True)
      (fc2): Linear(in_features=64, out_features=64, bias=True)
      (bn): BatchNorm1d(64, eps=1e-05, momentum=0.1, affine=True, track_running_stats=True)
    )
    (Wq): Linear(in_features=64, out_features=128, bias=True)
    (Wk): Linear(in_features=64, out_features=128, bias=True)
  )
  (linear1): Linear(in_features=1, out_features=64, bias=True)
  (encoder_model): ModuleList(
    (0-2): 3 x EncoderModel(
      (gcn_layers): ModuleList(
        (0): SoftPoolingGcnEncoder(
          (conv_first): GraphConv()
          (conv_block): ModuleList(
            (0): GraphConv()
          )
          (conv_last): GraphConv()
          (act): ReLU()
          (pred_model): Sequential(
            (0): Linear(in_features=384, out_features=50, bias=True)
            (1): ReLU()
            (2): Linear(in_features=50, out_features=2, bias=True)
          )
          (conv_first_after_pool): ModuleList(
            (0): GraphConv()
          )
          (conv_block_after_pool): ModuleList(
            (0): ModuleList(
              (0): GraphConv()
            )
          )
          (conv_last_after_pool): ModuleList(
            (0): GraphConv()
          )
          (assign_conv_first_modules): ModuleList(
            (0): GraphConv()
          )
          (assign_conv_block_modules): ModuleList(
            (0): ModuleList(
              (0): GraphConv()
            )
          )
          (assign_conv_last_modules): ModuleList(
            (0): GraphConv()
          )
          (assign_pred_modules): ModuleList(
            (0): Linear(in_features=140, out_features=12, bias=True)
          )
        )
      )
      (projection_layer): Linear(in_features=2, out_features=3264, bias=True)
    )
  )
  (linear_out): Linear(in_features=64, out_features=1, bias=True)
  (soft_pooling_encoder): SoftPoolingGcnEncoder(
    (conv_first): GraphConv()
    (conv_block): ModuleList(
      (0): GraphConv()
    )
    (conv_last): GraphConv()
    (act): ReLU()
    (pred_model): Sequential(
      (0): Linear(in_features=384, out_features=50, bias=True)
      (1): ReLU()
      (2): Linear(in_features=50, out_features=2, bias=True)
    )
    (conv_first_after_pool): ModuleList(
      (0): GraphConv()
    )
    (conv_block_after_pool): ModuleList(
      (0): ModuleList(
        (0): GraphConv()
      )
    )
    (conv_last_after_pool): ModuleList(
      (0): GraphConv()
    )
    (assign_conv_first_modules): ModuleList(
      (0): GraphConv()
    )
    (assign_conv_block_modules): ModuleList(
      (0): ModuleList(
        (0): GraphConv()
      )
    )
    (assign_conv_last_modules): ModuleList(
      (0): GraphConv()
    )
    (assign_pred_modules): ModuleList(
      (0): Linear(in_features=140, out_features=12, bias=True)
    )
  )
)
2024-10-10 20:22:02,543 - root - INFO - train: torch.Size([4195, 51, 1, 30]), torch.Size([4195, 51, 1, 30])
2024-10-10 20:22:02,543 - root - INFO - val: torch.Size([1027, 51, 1, 30]), torch.Size([1027, 51, 1, 30])
2024-10-10 20:22:02,544 - root - INFO - 训练集文件data/SWAT/train_swat_gcn.npz
2024-10-10 20:22:02,590 - root - INFO - Grelen(
  (graph_learner): Graph_learner(
    (mlp1): MLP(
      (fc1): Linear(in_features=30, out_features=64, bias=True)
      (fc2): Linear(in_features=64, out_features=64, bias=True)
      (bn): BatchNorm1d(64, eps=1e-05, momentum=0.1, affine=True, track_running_stats=True)
    )
    (Wq): Linear(in_features=64, out_features=128, bias=True)
    (Wk): Linear(in_features=64, out_features=128, bias=True)
  )
  (linear1): Linear(in_features=1, out_features=64, bias=True)
  (encoder_model): ModuleList(
    (0-2): 3 x EncoderModel(
      (gcn_layers): ModuleList(
        (0): SoftPoolingGcnEncoder(
          (conv_first): GraphConv()
          (conv_block): ModuleList(
            (0): GraphConv()
          )
          (conv_last): GraphConv()
          (act): ReLU()
          (pred_model): Sequential(
            (0): Linear(in_features=384, out_features=50, bias=True)
            (1): ReLU()
            (2): Linear(in_features=50, out_features=2, bias=True)
          )
          (conv_first_after_pool): ModuleList(
            (0): GraphConv()
          )
          (conv_block_after_pool): ModuleList(
            (0): ModuleList(
              (0): GraphConv()
            )
          )
          (conv_last_after_pool): ModuleList(
            (0): GraphConv()
          )
          (assign_conv_first_modules): ModuleList(
            (0): GraphConv()
          )
          (assign_conv_block_modules): ModuleList(
            (0): ModuleList(
              (0): GraphConv()
            )
          )
          (assign_conv_last_modules): ModuleList(
            (0): GraphConv()
          )
          (assign_pred_modules): ModuleList(
            (0): Linear(in_features=140, out_features=12, bias=True)
          )
        )
      )
      (projection_layer): Linear(in_features=2, out_features=3264, bias=True)
    )
  )
  (linear_out): Linear(in_features=64, out_features=1, bias=True)
  (soft_pooling_encoder): SoftPoolingGcnEncoder(
    (conv_first): GraphConv()
    (conv_block): ModuleList(
      (0): GraphConv()
    )
    (conv_last): GraphConv()
    (act): ReLU()
    (pred_model): Sequential(
      (0): Linear(in_features=384, out_features=50, bias=True)
      (1): ReLU()
      (2): Linear(in_features=50, out_features=2, bias=True)
    )
    (conv_first_after_pool): ModuleList(
      (0): GraphConv()
    )
    (conv_block_after_pool): ModuleList(
      (0): ModuleList(
        (0): GraphConv()
      )
    )
    (conv_last_after_pool): ModuleList(
      (0): GraphConv()
    )
    (assign_conv_first_modules): ModuleList(
      (0): GraphConv()
    )
    (assign_conv_block_modules): ModuleList(
      (0): ModuleList(
        (0): GraphConv()
      )
    )
    (assign_conv_last_modules): ModuleList(
      (0): GraphConv()
    )
    (assign_pred_modules): ModuleList(
      (0): Linear(in_features=140, out_features=12, bias=True)
    )
  )
)
2024-10-10 20:23:07,335 - root - INFO - train: torch.Size([4195, 51, 1, 30]), torch.Size([4195, 51, 1, 30])
2024-10-10 20:23:07,335 - root - INFO - val: torch.Size([1027, 51, 1, 30]), torch.Size([1027, 51, 1, 30])
2024-10-10 20:23:07,337 - root - INFO - 训练集文件data/SWAT/train_swat_gcn.npz
2024-10-10 20:23:07,402 - root - INFO - Grelen(
  (graph_learner): Graph_learner(
    (mlp1): MLP(
      (fc1): Linear(in_features=30, out_features=64, bias=True)
      (fc2): Linear(in_features=64, out_features=64, bias=True)
      (bn): BatchNorm1d(64, eps=1e-05, momentum=0.1, affine=True, track_running_stats=True)
    )
    (Wq): Linear(in_features=64, out_features=128, bias=True)
    (Wk): Linear(in_features=64, out_features=128, bias=True)
  )
  (linear1): Linear(in_features=1, out_features=64, bias=True)
  (encoder_model): ModuleList(
    (0-2): 3 x EncoderModel(
      (gcn_layers): ModuleList(
        (0): SoftPoolingGcnEncoder(
          (conv_first): GraphConv()
          (conv_block): ModuleList(
            (0): GraphConv()
          )
          (conv_last): GraphConv()
          (act): ReLU()
          (pred_model): Sequential(
            (0): Linear(in_features=384, out_features=50, bias=True)
            (1): ReLU()
            (2): Linear(in_features=50, out_features=2, bias=True)
          )
          (conv_first_after_pool): ModuleList(
            (0): GraphConv()
          )
          (conv_block_after_pool): ModuleList(
            (0): ModuleList(
              (0): GraphConv()
            )
          )
          (conv_last_after_pool): ModuleList(
            (0): GraphConv()
          )
          (assign_conv_first_modules): ModuleList(
            (0): GraphConv()
          )
          (assign_conv_block_modules): ModuleList(
            (0): ModuleList(
              (0): GraphConv()
            )
          )
          (assign_conv_last_modules): ModuleList(
            (0): GraphConv()
          )
          (assign_pred_modules): ModuleList(
            (0): Linear(in_features=140, out_features=12, bias=True)
          )
        )
      )
      (projection_layer): Linear(in_features=2, out_features=3264, bias=True)
    )
  )
  (linear_out): Linear(in_features=64, out_features=1, bias=True)
  (soft_pooling_encoder): SoftPoolingGcnEncoder(
    (conv_first): GraphConv()
    (conv_block): ModuleList(
      (0): GraphConv()
    )
    (conv_last): GraphConv()
    (act): ReLU()
    (pred_model): Sequential(
      (0): Linear(in_features=384, out_features=50, bias=True)
      (1): ReLU()
      (2): Linear(in_features=50, out_features=2, bias=True)
    )
    (conv_first_after_pool): ModuleList(
      (0): GraphConv()
    )
    (conv_block_after_pool): ModuleList(
      (0): ModuleList(
        (0): GraphConv()
      )
    )
    (conv_last_after_pool): ModuleList(
      (0): GraphConv()
    )
    (assign_conv_first_modules): ModuleList(
      (0): GraphConv()
    )
    (assign_conv_block_modules): ModuleList(
      (0): ModuleList(
        (0): GraphConv()
      )
    )
    (assign_conv_last_modules): ModuleList(
      (0): GraphConv()
    )
    (assign_pred_modules): ModuleList(
      (0): Linear(in_features=140, out_features=12, bias=True)
    )
  )
)
2024-10-10 20:25:03,050 - root - INFO - train: torch.Size([4195, 51, 1, 30]), torch.Size([4195, 51, 1, 30])
2024-10-10 20:25:03,051 - root - INFO - val: torch.Size([1027, 51, 1, 30]), torch.Size([1027, 51, 1, 30])
2024-10-10 20:25:03,052 - root - INFO - 训练集文件data/SWAT/train_swat_gcn.npz
2024-10-10 20:25:03,121 - root - INFO - Grelen(
  (graph_learner): Graph_learner(
    (mlp1): MLP(
      (fc1): Linear(in_features=30, out_features=64, bias=True)
      (fc2): Linear(in_features=64, out_features=64, bias=True)
      (bn): BatchNorm1d(64, eps=1e-05, momentum=0.1, affine=True, track_running_stats=True)
    )
    (Wq): Linear(in_features=64, out_features=128, bias=True)
    (Wk): Linear(in_features=64, out_features=128, bias=True)
  )
  (linear1): Linear(in_features=1, out_features=64, bias=True)
  (encoder_model): ModuleList(
    (0-2): 3 x EncoderModel(
      (gcn_layers): ModuleList(
        (0): SoftPoolingGcnEncoder(
          (conv_first): GraphConv()
          (conv_block): ModuleList(
            (0): GraphConv()
          )
          (conv_last): GraphConv()
          (act): ReLU()
          (pred_model): Sequential(
            (0): Linear(in_features=384, out_features=50, bias=True)
            (1): ReLU()
            (2): Linear(in_features=50, out_features=2, bias=True)
          )
          (conv_first_after_pool): ModuleList(
            (0): GraphConv()
          )
          (conv_block_after_pool): ModuleList(
            (0): ModuleList(
              (0): GraphConv()
            )
          )
          (conv_last_after_pool): ModuleList(
            (0): GraphConv()
          )
          (assign_conv_first_modules): ModuleList(
            (0): GraphConv()
          )
          (assign_conv_block_modules): ModuleList(
            (0): ModuleList(
              (0): GraphConv()
            )
          )
          (assign_conv_last_modules): ModuleList(
            (0): GraphConv()
          )
          (assign_pred_modules): ModuleList(
            (0): Linear(in_features=140, out_features=12, bias=True)
          )
        )
      )
      (projection_layer): Linear(in_features=2, out_features=3264, bias=True)
    )
  )
  (linear_out): Linear(in_features=64, out_features=1, bias=True)
  (soft_pooling_encoder): SoftPoolingGcnEncoder(
    (conv_first): GraphConv()
    (conv_block): ModuleList(
      (0): GraphConv()
    )
    (conv_last): GraphConv()
    (act): ReLU()
    (pred_model): Sequential(
      (0): Linear(in_features=384, out_features=50, bias=True)
      (1): ReLU()
      (2): Linear(in_features=50, out_features=2, bias=True)
    )
    (conv_first_after_pool): ModuleList(
      (0): GraphConv()
    )
    (conv_block_after_pool): ModuleList(
      (0): ModuleList(
        (0): GraphConv()
      )
    )
    (conv_last_after_pool): ModuleList(
      (0): GraphConv()
    )
    (assign_conv_first_modules): ModuleList(
      (0): GraphConv()
    )
    (assign_conv_block_modules): ModuleList(
      (0): ModuleList(
        (0): GraphConv()
      )
    )
    (assign_conv_last_modules): ModuleList(
      (0): GraphConv()
    )
    (assign_pred_modules): ModuleList(
      (0): Linear(in_features=140, out_features=12, bias=True)
    )
  )
)
2024-10-10 20:25:43,591 - root - INFO - train: torch.Size([4195, 51, 1, 30]), torch.Size([4195, 51, 1, 30])
2024-10-10 20:25:43,591 - root - INFO - val: torch.Size([1027, 51, 1, 30]), torch.Size([1027, 51, 1, 30])
2024-10-10 20:25:43,593 - root - INFO - 训练集文件data/SWAT/train_swat_gcn.npz
2024-10-10 20:25:43,667 - root - INFO - Grelen(
  (graph_learner): Graph_learner(
    (mlp1): MLP(
      (fc1): Linear(in_features=30, out_features=64, bias=True)
      (fc2): Linear(in_features=64, out_features=64, bias=True)
      (bn): BatchNorm1d(64, eps=1e-05, momentum=0.1, affine=True, track_running_stats=True)
    )
    (Wq): Linear(in_features=64, out_features=128, bias=True)
    (Wk): Linear(in_features=64, out_features=128, bias=True)
  )
  (linear1): Linear(in_features=1, out_features=64, bias=True)
  (encoder_model): ModuleList(
    (0-2): 3 x EncoderModel(
      (gcn_layers): ModuleList(
        (0): SoftPoolingGcnEncoder(
          (conv_first): GraphConv()
          (conv_block): ModuleList(
            (0): GraphConv()
          )
          (conv_last): GraphConv()
          (act): ReLU()
          (pred_model): Sequential(
            (0): Linear(in_features=384, out_features=50, bias=True)
            (1): ReLU()
            (2): Linear(in_features=50, out_features=2, bias=True)
          )
          (conv_first_after_pool): ModuleList(
            (0): GraphConv()
          )
          (conv_block_after_pool): ModuleList(
            (0): ModuleList(
              (0): GraphConv()
            )
          )
          (conv_last_after_pool): ModuleList(
            (0): GraphConv()
          )
          (assign_conv_first_modules): ModuleList(
            (0): GraphConv()
          )
          (assign_conv_block_modules): ModuleList(
            (0): ModuleList(
              (0): GraphConv()
            )
          )
          (assign_conv_last_modules): ModuleList(
            (0): GraphConv()
          )
          (assign_pred_modules): ModuleList(
            (0): Linear(in_features=140, out_features=12, bias=True)
          )
        )
      )
      (projection_layer): Linear(in_features=2, out_features=3264, bias=True)
    )
  )
  (linear_out): Linear(in_features=64, out_features=1, bias=True)
  (soft_pooling_encoder): SoftPoolingGcnEncoder(
    (conv_first): GraphConv()
    (conv_block): ModuleList(
      (0): GraphConv()
    )
    (conv_last): GraphConv()
    (act): ReLU()
    (pred_model): Sequential(
      (0): Linear(in_features=384, out_features=50, bias=True)
      (1): ReLU()
      (2): Linear(in_features=50, out_features=2, bias=True)
    )
    (conv_first_after_pool): ModuleList(
      (0): GraphConv()
    )
    (conv_block_after_pool): ModuleList(
      (0): ModuleList(
        (0): GraphConv()
      )
    )
    (conv_last_after_pool): ModuleList(
      (0): GraphConv()
    )
    (assign_conv_first_modules): ModuleList(
      (0): GraphConv()
    )
    (assign_conv_block_modules): ModuleList(
      (0): ModuleList(
        (0): GraphConv()
      )
    )
    (assign_conv_last_modules): ModuleList(
      (0): GraphConv()
    )
    (assign_pred_modules): ModuleList(
      (0): Linear(in_features=140, out_features=12, bias=True)
    )
  )
)
2024-10-10 20:26:36,524 - root - INFO - train: torch.Size([4195, 51, 1, 30]), torch.Size([4195, 51, 1, 30])
2024-10-10 20:26:36,524 - root - INFO - val: torch.Size([1027, 51, 1, 30]), torch.Size([1027, 51, 1, 30])
2024-10-10 20:26:36,525 - root - INFO - 训练集文件data/SWAT/train_swat_gcn.npz
2024-10-10 20:26:36,555 - root - INFO - Grelen(
  (graph_learner): Graph_learner(
    (mlp1): MLP(
      (fc1): Linear(in_features=30, out_features=64, bias=True)
      (fc2): Linear(in_features=64, out_features=64, bias=True)
      (bn): BatchNorm1d(64, eps=1e-05, momentum=0.1, affine=True, track_running_stats=True)
    )
    (Wq): Linear(in_features=64, out_features=128, bias=True)
    (Wk): Linear(in_features=64, out_features=128, bias=True)
  )
  (linear1): Linear(in_features=1, out_features=64, bias=True)
  (encoder_model): ModuleList(
    (0-2): 3 x EncoderModel(
      (gcn_layers): ModuleList(
        (0): SoftPoolingGcnEncoder(
          (conv_first): GraphConv()
          (conv_block): ModuleList(
            (0): GraphConv()
          )
          (conv_last): GraphConv()
          (act): ReLU()
          (pred_model): Sequential(
            (0): Linear(in_features=384, out_features=50, bias=True)
            (1): ReLU()
            (2): Linear(in_features=50, out_features=2, bias=True)
          )
          (conv_first_after_pool): ModuleList(
            (0): GraphConv()
          )
          (conv_block_after_pool): ModuleList(
            (0): ModuleList(
              (0): GraphConv()
            )
          )
          (conv_last_after_pool): ModuleList(
            (0): GraphConv()
          )
          (assign_conv_first_modules): ModuleList(
            (0): GraphConv()
          )
          (assign_conv_block_modules): ModuleList(
            (0): ModuleList(
              (0): GraphConv()
            )
          )
          (assign_conv_last_modules): ModuleList(
            (0): GraphConv()
          )
          (assign_pred_modules): ModuleList(
            (0): Linear(in_features=140, out_features=12, bias=True)
          )
        )
      )
      (projection_layer): Linear(in_features=2, out_features=3264, bias=True)
    )
  )
  (linear_out): Linear(in_features=64, out_features=1, bias=True)
  (soft_pooling_encoder): SoftPoolingGcnEncoder(
    (conv_first): GraphConv()
    (conv_block): ModuleList(
      (0): GraphConv()
    )
    (conv_last): GraphConv()
    (act): ReLU()
    (pred_model): Sequential(
      (0): Linear(in_features=384, out_features=50, bias=True)
      (1): ReLU()
      (2): Linear(in_features=50, out_features=2, bias=True)
    )
    (conv_first_after_pool): ModuleList(
      (0): GraphConv()
    )
    (conv_block_after_pool): ModuleList(
      (0): ModuleList(
        (0): GraphConv()
      )
    )
    (conv_last_after_pool): ModuleList(
      (0): GraphConv()
    )
    (assign_conv_first_modules): ModuleList(
      (0): GraphConv()
    )
    (assign_conv_block_modules): ModuleList(
      (0): ModuleList(
        (0): GraphConv()
      )
    )
    (assign_conv_last_modules): ModuleList(
      (0): GraphConv()
    )
    (assign_pred_modules): ModuleList(
      (0): Linear(in_features=140, out_features=12, bias=True)
    )
  )
)
2024-10-10 20:27:46,439 - root - INFO - train: torch.Size([4195, 51, 1, 30]), torch.Size([4195, 51, 1, 30])
2024-10-10 20:27:46,440 - root - INFO - val: torch.Size([1027, 51, 1, 30]), torch.Size([1027, 51, 1, 30])
2024-10-10 20:27:46,441 - root - INFO - 训练集文件data/SWAT/train_swat_gcn.npz
2024-10-10 20:27:46,469 - root - INFO - Grelen(
  (graph_learner): Graph_learner(
    (mlp1): MLP(
      (fc1): Linear(in_features=30, out_features=64, bias=True)
      (fc2): Linear(in_features=64, out_features=64, bias=True)
      (bn): BatchNorm1d(64, eps=1e-05, momentum=0.1, affine=True, track_running_stats=True)
    )
    (Wq): Linear(in_features=64, out_features=128, bias=True)
    (Wk): Linear(in_features=64, out_features=128, bias=True)
  )
  (linear1): Linear(in_features=1, out_features=64, bias=True)
  (encoder_model): ModuleList(
    (0-2): 3 x EncoderModel(
      (gcn_layers): ModuleList(
        (0): SoftPoolingGcnEncoder(
          (conv_first): GraphConv()
          (conv_block): ModuleList(
            (0): GraphConv()
          )
          (conv_last): GraphConv()
          (act): ReLU()
          (pred_model): Sequential(
            (0): Linear(in_features=384, out_features=50, bias=True)
            (1): ReLU()
            (2): Linear(in_features=50, out_features=2, bias=True)
          )
          (conv_first_after_pool): ModuleList(
            (0): GraphConv()
          )
          (conv_block_after_pool): ModuleList(
            (0): ModuleList(
              (0): GraphConv()
            )
          )
          (conv_last_after_pool): ModuleList(
            (0): GraphConv()
          )
          (assign_conv_first_modules): ModuleList(
            (0): GraphConv()
          )
          (assign_conv_block_modules): ModuleList(
            (0): ModuleList(
              (0): GraphConv()
            )
          )
          (assign_conv_last_modules): ModuleList(
            (0): GraphConv()
          )
          (assign_pred_modules): ModuleList(
            (0): Linear(in_features=140, out_features=12, bias=True)
          )
        )
      )
      (projection_layer): Linear(in_features=2, out_features=3264, bias=True)
    )
  )
  (linear_out): Linear(in_features=64, out_features=1, bias=True)
  (soft_pooling_encoder): SoftPoolingGcnEncoder(
    (conv_first): GraphConv()
    (conv_block): ModuleList(
      (0): GraphConv()
    )
    (conv_last): GraphConv()
    (act): ReLU()
    (pred_model): Sequential(
      (0): Linear(in_features=384, out_features=50, bias=True)
      (1): ReLU()
      (2): Linear(in_features=50, out_features=2, bias=True)
    )
    (conv_first_after_pool): ModuleList(
      (0): GraphConv()
    )
    (conv_block_after_pool): ModuleList(
      (0): ModuleList(
        (0): GraphConv()
      )
    )
    (conv_last_after_pool): ModuleList(
      (0): GraphConv()
    )
    (assign_conv_first_modules): ModuleList(
      (0): GraphConv()
    )
    (assign_conv_block_modules): ModuleList(
      (0): ModuleList(
        (0): GraphConv()
      )
    )
    (assign_conv_last_modules): ModuleList(
      (0): GraphConv()
    )
    (assign_pred_modules): ModuleList(
      (0): Linear(in_features=140, out_features=12, bias=True)
    )
  )
)
2024-10-10 20:31:41,020 - root - INFO - train: torch.Size([4195, 51, 1, 30]), torch.Size([4195, 51, 1, 30])
2024-10-10 20:31:41,020 - root - INFO - val: torch.Size([1027, 51, 1, 30]), torch.Size([1027, 51, 1, 30])
2024-10-10 20:31:41,022 - root - INFO - 训练集文件data/SWAT/train_swat_gcn.npz
2024-10-10 20:31:41,076 - root - INFO - Grelen(
  (graph_learner): Graph_learner(
    (mlp1): MLP(
      (fc1): Linear(in_features=30, out_features=64, bias=True)
      (fc2): Linear(in_features=64, out_features=64, bias=True)
      (bn): BatchNorm1d(64, eps=1e-05, momentum=0.1, affine=True, track_running_stats=True)
    )
    (Wq): Linear(in_features=64, out_features=128, bias=True)
    (Wk): Linear(in_features=64, out_features=128, bias=True)
  )
  (linear1): Linear(in_features=1, out_features=64, bias=True)
  (encoder_model): ModuleList(
    (0-2): 3 x EncoderModel(
      (gcn_layers): ModuleList(
        (0): SoftPoolingGcnEncoder(
          (conv_first): GraphConv()
          (conv_block): ModuleList(
            (0): GraphConv()
          )
          (conv_last): GraphConv()
          (act): ReLU()
          (pred_model): Sequential(
            (0): Linear(in_features=384, out_features=50, bias=True)
            (1): ReLU()
            (2): Linear(in_features=50, out_features=2, bias=True)
          )
          (conv_first_after_pool): ModuleList(
            (0): GraphConv()
          )
          (conv_block_after_pool): ModuleList(
            (0): ModuleList(
              (0): GraphConv()
            )
          )
          (conv_last_after_pool): ModuleList(
            (0): GraphConv()
          )
          (assign_conv_first_modules): ModuleList(
            (0): GraphConv()
          )
          (assign_conv_block_modules): ModuleList(
            (0): ModuleList(
              (0): GraphConv()
            )
          )
          (assign_conv_last_modules): ModuleList(
            (0): GraphConv()
          )
          (assign_pred_modules): ModuleList(
            (0): Linear(in_features=140, out_features=12, bias=True)
          )
        )
      )
      (projection_layer): Linear(in_features=2, out_features=3264, bias=True)
    )
  )
  (linear_out): Linear(in_features=64, out_features=1, bias=True)
  (soft_pooling_encoder): SoftPoolingGcnEncoder(
    (conv_first): GraphConv()
    (conv_block): ModuleList(
      (0): GraphConv()
    )
    (conv_last): GraphConv()
    (act): ReLU()
    (pred_model): Sequential(
      (0): Linear(in_features=384, out_features=50, bias=True)
      (1): ReLU()
      (2): Linear(in_features=50, out_features=2, bias=True)
    )
    (conv_first_after_pool): ModuleList(
      (0): GraphConv()
    )
    (conv_block_after_pool): ModuleList(
      (0): ModuleList(
        (0): GraphConv()
      )
    )
    (conv_last_after_pool): ModuleList(
      (0): GraphConv()
    )
    (assign_conv_first_modules): ModuleList(
      (0): GraphConv()
    )
    (assign_conv_block_modules): ModuleList(
      (0): ModuleList(
        (0): GraphConv()
      )
    )
    (assign_conv_last_modules): ModuleList(
      (0): GraphConv()
    )
    (assign_pred_modules): ModuleList(
      (0): Linear(in_features=140, out_features=12, bias=True)
    )
  )
)
2024-10-10 20:36:10,787 - root - INFO - train: torch.Size([4195, 51, 1, 30]), torch.Size([4195, 51, 1, 30])
2024-10-10 20:36:10,788 - root - INFO - val: torch.Size([1027, 51, 1, 30]), torch.Size([1027, 51, 1, 30])
2024-10-10 20:36:10,789 - root - INFO - 训练集文件data/SWAT/train_swat_gcn.npz
2024-10-10 20:36:10,824 - root - INFO - Grelen(
  (graph_learner): Graph_learner(
    (mlp1): MLP(
      (fc1): Linear(in_features=30, out_features=64, bias=True)
      (fc2): Linear(in_features=64, out_features=64, bias=True)
      (bn): BatchNorm1d(64, eps=1e-05, momentum=0.1, affine=True, track_running_stats=True)
    )
    (Wq): Linear(in_features=64, out_features=128, bias=True)
    (Wk): Linear(in_features=64, out_features=128, bias=True)
  )
  (linear1): Linear(in_features=1, out_features=64, bias=True)
  (encoder_model): ModuleList(
    (0-2): 3 x EncoderModel(
      (gcn_layers): ModuleList(
        (0): SoftPoolingGcnEncoder(
          (conv_first): GraphConv()
          (conv_block): ModuleList(
            (0): GraphConv()
          )
          (conv_last): GraphConv()
          (act): ReLU()
          (pred_model): Sequential(
            (0): Linear(in_features=384, out_features=50, bias=True)
            (1): ReLU()
            (2): Linear(in_features=50, out_features=2, bias=True)
          )
          (conv_first_after_pool): ModuleList(
            (0): GraphConv()
          )
          (conv_block_after_pool): ModuleList(
            (0): ModuleList(
              (0): GraphConv()
            )
          )
          (conv_last_after_pool): ModuleList(
            (0): GraphConv()
          )
          (assign_conv_first_modules): ModuleList(
            (0): GraphConv()
          )
          (assign_conv_block_modules): ModuleList(
            (0): ModuleList(
              (0): GraphConv()
            )
          )
          (assign_conv_last_modules): ModuleList(
            (0): GraphConv()
          )
          (assign_pred_modules): ModuleList(
            (0): Linear(in_features=140, out_features=12, bias=True)
          )
        )
      )
      (projection_layer): Linear(in_features=2, out_features=3264, bias=True)
    )
  )
  (linear_out): Linear(in_features=64, out_features=1, bias=True)
  (soft_pooling_encoder): SoftPoolingGcnEncoder(
    (conv_first): GraphConv()
    (conv_block): ModuleList(
      (0): GraphConv()
    )
    (conv_last): GraphConv()
    (act): ReLU()
    (pred_model): Sequential(
      (0): Linear(in_features=384, out_features=50, bias=True)
      (1): ReLU()
      (2): Linear(in_features=50, out_features=2, bias=True)
    )
    (conv_first_after_pool): ModuleList(
      (0): GraphConv()
    )
    (conv_block_after_pool): ModuleList(
      (0): ModuleList(
        (0): GraphConv()
      )
    )
    (conv_last_after_pool): ModuleList(
      (0): GraphConv()
    )
    (assign_conv_first_modules): ModuleList(
      (0): GraphConv()
    )
    (assign_conv_block_modules): ModuleList(
      (0): ModuleList(
        (0): GraphConv()
      )
    )
    (assign_conv_last_modules): ModuleList(
      (0): GraphConv()
    )
    (assign_pred_modules): ModuleList(
      (0): Linear(in_features=140, out_features=12, bias=True)
    )
  )
)
2024-10-10 20:44:16,147 - root - INFO - train: torch.Size([4195, 51, 1, 30]), torch.Size([4195, 51, 1, 30])
2024-10-10 20:44:16,147 - root - INFO - val: torch.Size([1027, 51, 1, 30]), torch.Size([1027, 51, 1, 30])
2024-10-10 20:44:16,149 - root - INFO - 训练集文件data/SWAT/train_swat_gcn.npz
2024-10-10 20:44:16,189 - root - INFO - Grelen(
  (graph_learner): Graph_learner(
    (mlp1): MLP(
      (fc1): Linear(in_features=30, out_features=64, bias=True)
      (fc2): Linear(in_features=64, out_features=64, bias=True)
      (bn): BatchNorm1d(64, eps=1e-05, momentum=0.1, affine=True, track_running_stats=True)
    )
    (Wq): Linear(in_features=64, out_features=128, bias=True)
    (Wk): Linear(in_features=64, out_features=128, bias=True)
  )
  (linear1): Linear(in_features=1, out_features=64, bias=True)
  (encoder_model): ModuleList(
    (0-2): 3 x EncoderModel(
      (gcn_layers): ModuleList(
        (0): SoftPoolingGcnEncoder(
          (conv_first): GraphConv()
          (conv_block): ModuleList(
            (0): GraphConv()
          )
          (conv_last): GraphConv()
          (act): ReLU()
          (pred_model): Sequential(
            (0): Linear(in_features=384, out_features=50, bias=True)
            (1): ReLU()
            (2): Linear(in_features=50, out_features=2, bias=True)
          )
          (conv_first_after_pool): ModuleList(
            (0): GraphConv()
          )
          (conv_block_after_pool): ModuleList(
            (0): ModuleList(
              (0): GraphConv()
            )
          )
          (conv_last_after_pool): ModuleList(
            (0): GraphConv()
          )
          (assign_conv_first_modules): ModuleList(
            (0): GraphConv()
          )
          (assign_conv_block_modules): ModuleList(
            (0): ModuleList(
              (0): GraphConv()
            )
          )
          (assign_conv_last_modules): ModuleList(
            (0): GraphConv()
          )
          (assign_pred_modules): ModuleList(
            (0): Linear(in_features=140, out_features=12, bias=True)
          )
        )
      )
      (projection_layer): Linear(in_features=2, out_features=3264, bias=True)
    )
  )
  (linear_out): Linear(in_features=64, out_features=1, bias=True)
  (soft_pooling_encoder): SoftPoolingGcnEncoder(
    (conv_first): GraphConv()
    (conv_block): ModuleList(
      (0): GraphConv()
    )
    (conv_last): GraphConv()
    (act): ReLU()
    (pred_model): Sequential(
      (0): Linear(in_features=384, out_features=50, bias=True)
      (1): ReLU()
      (2): Linear(in_features=50, out_features=2, bias=True)
    )
    (conv_first_after_pool): ModuleList(
      (0): GraphConv()
    )
    (conv_block_after_pool): ModuleList(
      (0): ModuleList(
        (0): GraphConv()
      )
    )
    (conv_last_after_pool): ModuleList(
      (0): GraphConv()
    )
    (assign_conv_first_modules): ModuleList(
      (0): GraphConv()
    )
    (assign_conv_block_modules): ModuleList(
      (0): ModuleList(
        (0): GraphConv()
      )
    )
    (assign_conv_last_modules): ModuleList(
      (0): GraphConv()
    )
    (assign_pred_modules): ModuleList(
      (0): Linear(in_features=140, out_features=12, bias=True)
    )
  )
)
2024-10-10 20:44:56,791 - root - INFO - train: torch.Size([4195, 51, 1, 30]), torch.Size([4195, 51, 1, 30])
2024-10-10 20:44:56,791 - root - INFO - val: torch.Size([1027, 51, 1, 30]), torch.Size([1027, 51, 1, 30])
2024-10-10 20:44:56,793 - root - INFO - 训练集文件data/SWAT/train_swat_gcn.npz
2024-10-10 20:44:56,836 - root - INFO - Grelen(
  (graph_learner): Graph_learner(
    (mlp1): MLP(
      (fc1): Linear(in_features=30, out_features=64, bias=True)
      (fc2): Linear(in_features=64, out_features=64, bias=True)
      (bn): BatchNorm1d(64, eps=1e-05, momentum=0.1, affine=True, track_running_stats=True)
    )
    (Wq): Linear(in_features=64, out_features=128, bias=True)
    (Wk): Linear(in_features=64, out_features=128, bias=True)
  )
  (linear1): Linear(in_features=1, out_features=64, bias=True)
  (encoder_model): ModuleList(
    (0-2): 3 x EncoderModel(
      (gcn_layers): ModuleList(
        (0): SoftPoolingGcnEncoder(
          (conv_first): GraphConv()
          (conv_block): ModuleList(
            (0): GraphConv()
          )
          (conv_last): GraphConv()
          (act): ReLU()
          (pred_model): Sequential(
            (0): Linear(in_features=384, out_features=50, bias=True)
            (1): ReLU()
            (2): Linear(in_features=50, out_features=2, bias=True)
          )
          (conv_first_after_pool): ModuleList(
            (0): GraphConv()
          )
          (conv_block_after_pool): ModuleList(
            (0): ModuleList(
              (0): GraphConv()
            )
          )
          (conv_last_after_pool): ModuleList(
            (0): GraphConv()
          )
          (assign_conv_first_modules): ModuleList(
            (0): GraphConv()
          )
          (assign_conv_block_modules): ModuleList(
            (0): ModuleList(
              (0): GraphConv()
            )
          )
          (assign_conv_last_modules): ModuleList(
            (0): GraphConv()
          )
          (assign_pred_modules): ModuleList(
            (0): Linear(in_features=140, out_features=12, bias=True)
          )
        )
      )
      (projection_layer): Linear(in_features=2, out_features=3264, bias=True)
    )
  )
  (linear_out): Linear(in_features=64, out_features=1, bias=True)
  (soft_pooling_encoder): SoftPoolingGcnEncoder(
    (conv_first): GraphConv()
    (conv_block): ModuleList(
      (0): GraphConv()
    )
    (conv_last): GraphConv()
    (act): ReLU()
    (pred_model): Sequential(
      (0): Linear(in_features=384, out_features=50, bias=True)
      (1): ReLU()
      (2): Linear(in_features=50, out_features=2, bias=True)
    )
    (conv_first_after_pool): ModuleList(
      (0): GraphConv()
    )
    (conv_block_after_pool): ModuleList(
      (0): ModuleList(
        (0): GraphConv()
      )
    )
    (conv_last_after_pool): ModuleList(
      (0): GraphConv()
    )
    (assign_conv_first_modules): ModuleList(
      (0): GraphConv()
    )
    (assign_conv_block_modules): ModuleList(
      (0): ModuleList(
        (0): GraphConv()
      )
    )
    (assign_conv_last_modules): ModuleList(
      (0): GraphConv()
    )
    (assign_pred_modules): ModuleList(
      (0): Linear(in_features=140, out_features=12, bias=True)
    )
  )
)
2024-10-10 20:47:38,379 - root - INFO - train: torch.Size([4195, 51, 1, 30]), torch.Size([4195, 51, 1, 30])
2024-10-10 20:47:38,379 - root - INFO - val: torch.Size([1027, 51, 1, 30]), torch.Size([1027, 51, 1, 30])
2024-10-10 20:47:38,380 - root - INFO - 训练集文件data/SWAT/train_swat_gcn.npz
2024-10-10 20:47:38,455 - root - INFO - Grelen(
  (graph_learner): Graph_learner(
    (mlp1): MLP(
      (fc1): Linear(in_features=30, out_features=64, bias=True)
      (fc2): Linear(in_features=64, out_features=64, bias=True)
      (bn): BatchNorm1d(64, eps=1e-05, momentum=0.1, affine=True, track_running_stats=True)
    )
    (Wq): Linear(in_features=64, out_features=128, bias=True)
    (Wk): Linear(in_features=64, out_features=128, bias=True)
  )
  (linear1): Linear(in_features=1, out_features=64, bias=True)
  (encoder_model): ModuleList(
    (0-2): 3 x EncoderModel(
      (gcn_layers): ModuleList(
        (0): SoftPoolingGcnEncoder(
          (conv_first): GraphConv()
          (conv_block): ModuleList(
            (0): GraphConv()
          )
          (conv_last): GraphConv()
          (act): ReLU()
          (pred_model): Sequential(
            (0): Linear(in_features=384, out_features=50, bias=True)
            (1): ReLU()
            (2): Linear(in_features=50, out_features=2, bias=True)
          )
          (conv_first_after_pool): ModuleList(
            (0): GraphConv()
          )
          (conv_block_after_pool): ModuleList(
            (0): ModuleList(
              (0): GraphConv()
            )
          )
          (conv_last_after_pool): ModuleList(
            (0): GraphConv()
          )
          (assign_conv_first_modules): ModuleList(
            (0): GraphConv()
          )
          (assign_conv_block_modules): ModuleList(
            (0): ModuleList(
              (0): GraphConv()
            )
          )
          (assign_conv_last_modules): ModuleList(
            (0): GraphConv()
          )
          (assign_pred_modules): ModuleList(
            (0): Linear(in_features=140, out_features=12, bias=True)
          )
        )
      )
      (projection_layer): Linear(in_features=2, out_features=3264, bias=True)
    )
  )
  (linear_out): Linear(in_features=64, out_features=1, bias=True)
  (soft_pooling_encoder): SoftPoolingGcnEncoder(
    (conv_first): GraphConv()
    (conv_block): ModuleList(
      (0): GraphConv()
    )
    (conv_last): GraphConv()
    (act): ReLU()
    (pred_model): Sequential(
      (0): Linear(in_features=384, out_features=50, bias=True)
      (1): ReLU()
      (2): Linear(in_features=50, out_features=2, bias=True)
    )
    (conv_first_after_pool): ModuleList(
      (0): GraphConv()
    )
    (conv_block_after_pool): ModuleList(
      (0): ModuleList(
        (0): GraphConv()
      )
    )
    (conv_last_after_pool): ModuleList(
      (0): GraphConv()
    )
    (assign_conv_first_modules): ModuleList(
      (0): GraphConv()
    )
    (assign_conv_block_modules): ModuleList(
      (0): ModuleList(
        (0): GraphConv()
      )
    )
    (assign_conv_last_modules): ModuleList(
      (0): GraphConv()
    )
    (assign_pred_modules): ModuleList(
      (0): Linear(in_features=140, out_features=12, bias=True)
    )
  )
)
2024-10-10 20:49:05,082 - root - INFO - train: torch.Size([4195, 51, 1, 30]), torch.Size([4195, 51, 1, 30])
2024-10-10 20:49:05,093 - root - INFO - val: torch.Size([1027, 51, 1, 30]), torch.Size([1027, 51, 1, 30])
2024-10-10 20:49:05,095 - root - INFO - 训练集文件data/SWAT/train_swat_gcn.npz
2024-10-10 20:49:05,145 - root - INFO - Grelen(
  (graph_learner): Graph_learner(
    (mlp1): MLP(
      (fc1): Linear(in_features=30, out_features=64, bias=True)
      (fc2): Linear(in_features=64, out_features=64, bias=True)
      (bn): BatchNorm1d(64, eps=1e-05, momentum=0.1, affine=True, track_running_stats=True)
    )
    (Wq): Linear(in_features=64, out_features=128, bias=True)
    (Wk): Linear(in_features=64, out_features=128, bias=True)
  )
  (linear1): Linear(in_features=1, out_features=64, bias=True)
  (encoder_model): ModuleList(
    (0-2): 3 x EncoderModel(
      (gcn_layers): ModuleList(
        (0): SoftPoolingGcnEncoder(
          (conv_first): GraphConv()
          (conv_block): ModuleList(
            (0): GraphConv()
          )
          (conv_last): GraphConv()
          (act): ReLU()
          (pred_model): Sequential(
            (0): Linear(in_features=384, out_features=50, bias=True)
            (1): ReLU()
            (2): Linear(in_features=50, out_features=2, bias=True)
          )
          (conv_first_after_pool): ModuleList(
            (0): GraphConv()
          )
          (conv_block_after_pool): ModuleList(
            (0): ModuleList(
              (0): GraphConv()
            )
          )
          (conv_last_after_pool): ModuleList(
            (0): GraphConv()
          )
          (assign_conv_first_modules): ModuleList(
            (0): GraphConv()
          )
          (assign_conv_block_modules): ModuleList(
            (0): ModuleList(
              (0): GraphConv()
            )
          )
          (assign_conv_last_modules): ModuleList(
            (0): GraphConv()
          )
          (assign_pred_modules): ModuleList(
            (0): Linear(in_features=140, out_features=12, bias=True)
          )
        )
      )
      (projection_layer): Linear(in_features=2, out_features=3264, bias=True)
    )
  )
  (linear_out): Linear(in_features=64, out_features=1, bias=True)
  (soft_pooling_encoder): SoftPoolingGcnEncoder(
    (conv_first): GraphConv()
    (conv_block): ModuleList(
      (0): GraphConv()
…
      (fc1): Linear(in_features=30, out_features=64, bias=True)
      (fc2): Linear(in_features=64, out_features=64, bias=True)
      (bn): BatchNorm1d(64, eps=1e-05, momentum=0.1, affine=True, track_running_stats=True)
    )
    (Wq): Linear(in_features=64, out_features=128, bias=True)
    (Wk): Linear(in_features=64, out_features=128, bias=True)
  )
  (linear1): Linear(in_features=1, out_features=64, bias=True)
  (encoder_model): ModuleList(
    (0-2): 3 x EncoderModel(
      (gcn_layers): ModuleList(
        (0): SoftPoolingGcnEncoder(
          (conv_first): GraphConv()
          (conv_block): ModuleList(
            (0): GraphConv()
          )
          (conv_last): GraphConv()
          (act): ReLU()
          (pred_model): Sequential(
            (0): Linear(in_features=384, out_features=50, bias=True)
            (1): ReLU()
            (2): Linear(in_features=50, out_features=2, bias=True)
          )
          (conv_first_after_pool): ModuleList(
            (0): GraphConv()
          )
          (conv_block_after_pool): ModuleList(
            (0): ModuleList(
              (0): GraphConv()
            )
          )
          (conv_last_after_pool): ModuleList(
            (0): GraphConv()
          )
          (assign_conv_first_modules): ModuleList(
            (0): GraphConv()
          )
          (assign_conv_block_modules): ModuleList(
            (0): ModuleList(
              (0): GraphConv()
            )
          )
          (assign_conv_last_modules): ModuleList(
            (0): GraphConv()
          )
          (assign_pred_modules): ModuleList(
            (0): Linear(in_features=140, out_features=12, bias=True)
          )
        )
      )
      (projection_layer): Linear(in_features=2, out_features=3264, bias=True)
    )
  )
  (linear_out): Linear(in_features=64, out_features=1, bias=True)
  (soft_pooling_encoder): SoftPoolingGcnEncoder(
    (conv_first): GraphConv()
    (conv_block): ModuleList(
      (0): GraphConv()
    )
    (conv_last): GraphConv()
    (act): ReLU()
    (pred_model): Sequential(
      (0): Linear(in_features=384, out_features=50, bias=True)
      (1): ReLU()
      (2): Linear(in_features=50, out_features=2, bias=True)
    )
    (conv_first_after_pool): ModuleList(
      (0): GraphConv()
    )
    (conv_block_after_pool): ModuleList(
      (0): ModuleList(
        (0): GraphConv()
      )
    )
    (conv_last_after_pool): ModuleList(
      (0): GraphConv()
    )
    (assign_conv_first_modules): ModuleList(
      (0): GraphConv()
    )
    (assign_conv_block_modules): ModuleList(
      (0): ModuleList(
        (0): GraphConv()
      )
    )
    (assign_conv_last_modules): ModuleList(
      (0): GraphConv()
    )
    (assign_pred_modules): ModuleList(
      (0): Linear(in_features=140, out_features=12, bias=True)
    )
  )
)
2024-10-14 15:58:07,397 - root - INFO - epoch: 0, loss_pool: 67.14
2024-10-14 15:58:07,410 - root - INFO - save parameters to file: experiments/swat_test/epoch_0.params
2024-10-14 16:00:01,697 - root - INFO - train: torch.Size([4195, 51, 1, 30]), torch.Size([4195, 51, 1, 30])
2024-10-14 16:00:01,697 - root - INFO - val: torch.Size([1027, 51, 1, 30]), torch.Size([1027, 51, 1, 30])
2024-10-14 16:00:01,698 - root - INFO - 训练集文件data/SWAT/train_swat_gcn.npz
2024-10-14 16:00:01,722 - root - INFO - Grelen(
  (graph_learner): Graph_learner(
    (mlp1): MLP(
      (fc1): Linear(in_features=30, out_features=64, bias=True)
      (fc2): Linear(in_features=64, out_features=64, bias=True)
      (bn): BatchNorm1d(64, eps=1e-05, momentum=0.1, affine=True, track_running_stats=True)
    )
    (Wq): Linear(in_features=64, out_features=128, bias=True)
    (Wk): Linear(in_features=64, out_features=128, bias=True)
  )
  (linear1): Linear(in_features=1, out_features=64, bias=True)
  (encoder_model): ModuleList(
    (0-2): 3 x EncoderModel(
      (gcn_layers): ModuleList(
        (0): SoftPoolingGcnEncoder(
          (conv_first): GraphConv()
          (conv_block): ModuleList(
            (0): GraphConv()
          )
          (conv_last): GraphConv()
          (act): ReLU()
          (pred_model): Sequential(
            (0): Linear(in_features=384, out_features=50, bias=True)
            (1): ReLU()
            (2): Linear(in_features=50, out_features=2, bias=True)
          )
          (conv_first_after_pool): ModuleList(
            (0): GraphConv()
          )
          (conv_block_after_pool): ModuleList(
            (0): ModuleList(
              (0): GraphConv()
            )
          )
          (conv_last_after_pool): ModuleList(
            (0): GraphConv()
          )
          (assign_conv_first_modules): ModuleList(
            (0): GraphConv()
          )
          (assign_conv_block_modules): ModuleList(
            (0): ModuleList(
              (0): GraphConv()
            )
          )
          (assign_conv_last_modules): ModuleList(
            (0): GraphConv()
          )
          (assign_pred_modules): ModuleList(
            (0): Linear(in_features=140, out_features=12, bias=True)
          )
        )
      )
      (projection_layer): Linear(in_features=2, out_features=3264, bias=True)
    )
  )
  (linear_out): Linear(in_features=64, out_features=1, bias=True)
  (soft_pooling_encoder): SoftPoolingGcnEncoder(
    (conv_first): GraphConv()
    (conv_block): ModuleList(
      (0): GraphConv()
    )
    (conv_last): GraphConv()
    (act): ReLU()
    (pred_model): Sequential(
      (0): Linear(in_features=384, out_features=50, bias=True)
      (1): ReLU()
      (2): Linear(in_features=50, out_features=2, bias=True)
    )
    (conv_first_after_pool): ModuleList(
      (0): GraphConv()
    )
    (conv_block_after_pool): ModuleList(
      (0): ModuleList(
        (0): GraphConv()
      )
    )
    (conv_last_after_pool): ModuleList(
      (0): GraphConv()
    )
    (assign_conv_first_modules): ModuleList(
      (0): GraphConv()
    )
    (assign_conv_block_modules): ModuleList(
      (0): ModuleList(
        (0): GraphConv()
      )
    )
    (assign_conv_last_modules): ModuleList(
      (0): GraphConv()
    )
    (assign_pred_modules): ModuleList(
      (0): Linear(in_features=140, out_features=12, bias=True)
    )
  )
)
2024-10-14 16:00:07,159 - root - INFO - epoch: 0, loss_pool: 67.07
2024-10-14 16:00:07,171 - root - INFO - save parameters to file: experiments/swat_test/epoch_0.params
2024-10-14 16:00:40,092 - root - INFO - train: torch.Size([4195, 51, 1, 30]), torch.Size([4195, 51, 1, 30])
2024-10-14 16:00:40,092 - root - INFO - val: torch.Size([1027, 51, 1, 30]), torch.Size([1027, 51, 1, 30])
2024-10-14 16:00:40,093 - root - INFO - 训练集文件data/SWAT/train_swat_gcn.npz
2024-10-14 16:00:40,116 - root - INFO - Grelen(
  (graph_learner): Graph_learner(
    (mlp1): MLP(
      (fc1): Linear(in_features=30, out_features=64, bias=True)
      (fc2): Linear(in_features=64, out_features=64, bias=True)
      (bn): BatchNorm1d(64, eps=1e-05, momentum=0.1, affine=True, track_running_stats=True)
    )
    (Wq): Linear(in_features=64, out_features=128, bias=True)
    (Wk): Linear(in_features=64, out_features=128, bias=True)
  )
  (linear1): Linear(in_features=1, out_features=64, bias=True)
  (encoder_model): ModuleList(
    (0-2): 3 x EncoderModel(
      (gcn_layers): ModuleList(
        (0): SoftPoolingGcnEncoder(
          (conv_first): GraphConv()
          (conv_block): ModuleList(
            (0): GraphConv()
          )
          (conv_last): GraphConv()
          (act): ReLU()
          (pred_model): Sequential(
            (0): Linear(in_features=384, out_features=50, bias=True)
            (1): ReLU()
            (2): Linear(in_features=50, out_features=2, bias=True)
          )
          (conv_first_after_pool): ModuleList(
            (0): GraphConv()
          )
          (conv_block_after_pool): ModuleList(
            (0): ModuleList(
              (0): GraphConv()
            )
          )
          (conv_last_after_pool): ModuleList(
            (0): GraphConv()
          )
          (assign_conv_first_modules): ModuleList(
            (0): GraphConv()
          )
          (assign_conv_block_modules): ModuleList(
            (0): ModuleList(
              (0): GraphConv()
            )
          )
          (assign_conv_last_modules): ModuleList(
            (0): GraphConv()
          )
          (assign_pred_modules): ModuleList(
            (0): Linear(in_features=140, out_features=12, bias=True)
          )
        )
      )
      (projection_layer): Linear(in_features=2, out_features=3264, bias=True)
    )
  )
  (linear_out): Linear(in_features=64, out_features=1, bias=True)
  (soft_pooling_encoder): SoftPoolingGcnEncoder(
    (conv_first): GraphConv()
    (conv_block): ModuleList(
      (0): GraphConv()
    )
    (conv_last): GraphConv()
    (act): ReLU()
    (pred_model): Sequential(
      (0): Linear(in_features=384, out_features=50, bias=True)
      (1): ReLU()
      (2): Linear(in_features=50, out_features=2, bias=True)
    )
    (conv_first_after_pool): ModuleList(
      (0): GraphConv()
    )
    (conv_block_after_pool): ModuleList(
      (0): ModuleList(
        (0): GraphConv()
      )
    )
    (conv_last_after_pool): ModuleList(
      (0): GraphConv()
    )
    (assign_conv_first_modules): ModuleList(
      (0): GraphConv()
    )
    (assign_conv_block_modules): ModuleList(
      (0): ModuleList(
        (0): GraphConv()
      )
    )
    (assign_conv_last_modules): ModuleList(
      (0): GraphConv()
    )
    (assign_pred_modules): ModuleList(
      (0): Linear(in_features=140, out_features=12, bias=True)
    )
  )
)
2024-10-14 16:00:45,559 - root - INFO - epoch: 0, loss_pool: 66.81
2024-10-14 16:00:45,572 - root - INFO - save parameters to file: experiments/swat_test/epoch_0.params
2024-10-14 16:01:11,889 - root - INFO - train: torch.Size([4195, 51, 1, 30]), torch.Size([4195, 51, 1, 30])
2024-10-14 16:01:11,889 - root - INFO - val: torch.Size([1027, 51, 1, 30]), torch.Size([1027, 51, 1, 30])
2024-10-14 16:01:11,891 - root - INFO - 训练集文件data/SWAT/train_swat_gcn.npz
2024-10-14 16:01:11,913 - root - INFO - Grelen(
  (graph_learner): Graph_learner(
    (mlp1): MLP(
      (fc1): Linear(in_features=30, out_features=64, bias=True)
      (fc2): Linear(in_features=64, out_features=64, bias=True)
      (bn): BatchNorm1d(64, eps=1e-05, momentum=0.1, affine=True, track_running_stats=True)
    )
    (Wq): Linear(in_features=64, out_features=128, bias=True)
    (Wk): Linear(in_features=64, out_features=128, bias=True)
  )
  (linear1): Linear(in_features=1, out_features=64, bias=True)
  (encoder_model): ModuleList(
    (0-2): 3 x EncoderModel(
      (gcn_layers): ModuleList(
        (0): SoftPoolingGcnEncoder(
          (conv_first): GraphConv()
          (conv_block): ModuleList(
            (0): GraphConv()
          )
          (conv_last): GraphConv()
          (act): ReLU()
          (pred_model): Sequential(
            (0): Linear(in_features=384, out_features=50, bias=True)
            (1): ReLU()
            (2): Linear(in_features=50, out_features=2, bias=True)
          )
          (conv_first_after_pool): ModuleList(
            (0): GraphConv()
          )
          (conv_block_after_pool): ModuleList(
            (0): ModuleList(
              (0): GraphConv()
            )
          )
          (conv_last_after_pool): ModuleList(
            (0): GraphConv()
          )
          (assign_conv_first_modules): ModuleList(
            (0): GraphConv()
          )
          (assign_conv_block_modules): ModuleList(
            (0): ModuleList(
              (0): GraphConv()
            )
          )
          (assign_conv_last_modules): ModuleList(
            (0): GraphConv()
          )
          (assign_pred_modules): ModuleList(
            (0): Linear(in_features=140, out_features=12, bias=True)
          )
        )
      )
      (projection_layer): Linear(in_features=2, out_features=3264, bias=True)
    )
  )
  (linear_out): Linear(in_features=64, out_features=1, bias=True)
  (soft_pooling_encoder): SoftPoolingGcnEncoder(
    (conv_first): GraphConv()
    (conv_block): ModuleList(
      (0): GraphConv()
    )
    (conv_last): GraphConv()
    (act): ReLU()
    (pred_model): Sequential(
      (0): Linear(in_features=384, out_features=50, bias=True)
      (1): ReLU()
      (2): Linear(in_features=50, out_features=2, bias=True)
    )
    (conv_first_after_pool): ModuleList(
      (0): GraphConv()
    )
    (conv_block_after_pool): ModuleList(
      (0): ModuleList(
        (0): GraphConv()
      )
    )
    (conv_last_after_pool): ModuleList(
      (0): GraphConv()
    )
    (assign_conv_first_modules): ModuleList(
      (0): GraphConv()
    )
    (assign_conv_block_modules): ModuleList(
      (0): ModuleList(
        (0): GraphConv()
      )
    )
    (assign_conv_last_modules): ModuleList(
      (0): GraphConv()
    )
    (assign_pred_modules): ModuleList(
      (0): Linear(in_features=140, out_features=12, bias=True)
    )
  )
)
2024-10-14 16:01:17,307 - root - INFO - epoch: 0, loss_pool: 68.55
2024-10-14 16:01:17,320 - root - INFO - save parameters to file: experiments/swat_test/epoch_0.params
2024-10-14 16:02:13,156 - root - INFO - train: torch.Size([4195, 51, 1, 30]), torch.Size([4195, 51, 1, 30])
2024-10-14 16:02:13,156 - root - INFO - val: torch.Size([1027, 51, 1, 30]), torch.Size([1027, 51, 1, 30])
2024-10-14 16:02:13,157 - root - INFO - 训练集文件data/SWAT/train_swat_gcn.npz
2024-10-14 16:02:13,180 - root - INFO - Grelen(
  (graph_learner): Graph_learner(
    (mlp1): MLP(
      (fc1): Linear(in_features=30, out_features=64, bias=True)
      (fc2): Linear(in_features=64, out_features=64, bias=True)
      (bn): BatchNorm1d(64, eps=1e-05, momentum=0.1, affine=True, track_running_stats=True)
    )
    (Wq): Linear(in_features=64, out_features=128, bias=True)
    (Wk): Linear(in_features=64, out_features=128, bias=True)
  )
  (linear1): Linear(in_features=1, out_features=64, bias=True)
  (encoder_model): ModuleList(
    (0-2): 3 x EncoderModel(
      (gcn_layers): ModuleList(
        (0): SoftPoolingGcnEncoder(
          (conv_first): GraphConv()
          (conv_block): ModuleList(
            (0): GraphConv()
          )
          (conv_last): GraphConv()
          (act): ReLU()
          (pred_model): Sequential(
            (0): Linear(in_features=384, out_features=50, bias=True)
            (1): ReLU()
            (2): Linear(in_features=50, out_features=2, bias=True)
          )
          (conv_first_after_pool): ModuleList(
            (0): GraphConv()
          )
          (conv_block_after_pool): ModuleList(
            (0): ModuleList(
              (0): GraphConv()
            )
          )
          (conv_last_after_pool): ModuleList(
            (0): GraphConv()
          )
          (assign_conv_first_modules): ModuleList(
            (0): GraphConv()
          )
          (assign_conv_block_modules): ModuleList(
            (0): ModuleList(
              (0): GraphConv()
            )
          )
          (assign_conv_last_modules): ModuleList(
            (0): GraphConv()
          )
          (assign_pred_modules): ModuleList(
            (0): Linear(in_features=140, out_features=12, bias=True)
          )
        )
      )
      (projection_layer): Linear(in_features=2, out_features=3264, bias=True)
    )
  )
  (linear_out): Linear(in_features=64, out_features=1, bias=True)
  (soft_pooling_encoder): SoftPoolingGcnEncoder(
    (conv_first): GraphConv()
    (conv_block): ModuleList(
      (0): GraphConv()
    )
    (conv_last): GraphConv()
    (act): ReLU()
    (pred_model): Sequential(
      (0): Linear(in_features=384, out_features=50, bias=True)
      (1): ReLU()
      (2): Linear(in_features=50, out_features=2, bias=True)
    )
    (conv_first_after_pool): ModuleList(
      (0): GraphConv()
    )
    (conv_block_after_pool): ModuleList(
      (0): ModuleList(
        (0): GraphConv()
      )
    )
    (conv_last_after_pool): ModuleList(
      (0): GraphConv()
    )
    (assign_conv_first_modules): ModuleList(
      (0): GraphConv()
    )
    (assign_conv_block_modules): ModuleList(
      (0): ModuleList(
        (0): GraphConv()
      )
    )
    (assign_conv_last_modules): ModuleList(
      (0): GraphConv()
    )
    (assign_pred_modules): ModuleList(
      (0): Linear(in_features=140, out_features=12, bias=True)
    )
  )
)
2024-10-14 16:02:18,636 - root - INFO - epoch: 0, loss_pool: 68.09
2024-10-14 16:02:18,649 - root - INFO - save parameters to file: experiments/swat_test/epoch_0.params
2024-10-14 16:02:43,290 - root - INFO - train: torch.Size([4195, 51, 1, 30]), torch.Size([4195, 51, 1, 30])
2024-10-14 16:02:43,291 - root - INFO - val: torch.Size([1027, 51, 1, 30]), torch.Size([1027, 51, 1, 30])
2024-10-14 16:02:43,293 - root - INFO - 训练集文件data/SWAT/train_swat_gcn.npz
2024-10-14 16:02:43,321 - root - INFO - Grelen(
  (graph_learner): Graph_learner(
    (mlp1): MLP(
      (fc1): Linear(in_features=30, out_features=64, bias=True)
      (fc2): Linear(in_features=64, out_features=64, bias=True)
      (bn): BatchNorm1d(64, eps=1e-05, momentum=0.1, affine=True, track_running_stats=True)
    )
    (Wq): Linear(in_features=64, out_features=128, bias=True)
    (Wk): Linear(in_features=64, out_features=128, bias=True)
  )
  (linear1): Linear(in_features=1, out_features=64, bias=True)
  (encoder_model): ModuleList(
    (0-2): 3 x EncoderModel(
      (gcn_layers): ModuleList(
        (0): SoftPoolingGcnEncoder(
          (conv_first): GraphConv()
          (conv_block): ModuleList(
            (0): GraphConv()
          )
          (conv_last): GraphConv()
          (act): ReLU()
          (pred_model): Sequential(
            (0): Linear(in_features=384, out_features=50, bias=True)
            (1): ReLU()
            (2): Linear(in_features=50, out_features=2, bias=True)
          )
          (conv_first_after_pool): ModuleList(
            (0): GraphConv()
          )
          (conv_block_after_pool): ModuleList(
            (0): ModuleList(
              (0): GraphConv()
            )
          )
          (conv_last_after_pool): ModuleList(
            (0): GraphConv()
          )
          (assign_conv_first_modules): ModuleList(
            (0): GraphConv()
          )
          (assign_conv_block_modules): ModuleList(
            (0): ModuleList(
              (0): GraphConv()
            )
          )
          (assign_conv_last_modules): ModuleList(
            (0): GraphConv()
          )
          (assign_pred_modules): ModuleList(
            (0): Linear(in_features=140, out_features=12, bias=True)
          )
        )
      )
      (projection_layer): Linear(in_features=2, out_features=3264, bias=True)
    )
  )
  (linear_out): Linear(in_features=64, out_features=1, bias=True)
  (soft_pooling_encoder): SoftPoolingGcnEncoder(
    (conv_first): GraphConv()
    (conv_block): ModuleList(
      (0): GraphConv()
    )
    (conv_last): GraphConv()
    (act): ReLU()
    (pred_model): Sequential(
      (0): Linear(in_features=384, out_features=50, bias=True)
      (1): ReLU()
      (2): Linear(in_features=50, out_features=2, bias=True)
    )
    (conv_first_after_pool): ModuleList(
      (0): GraphConv()
    )
    (conv_block_after_pool): ModuleList(
      (0): ModuleList(
        (0): GraphConv()
      )
    )
    (conv_last_after_pool): ModuleList(
      (0): GraphConv()
    )
    (assign_conv_first_modules): ModuleList(
      (0): GraphConv()
    )
    (assign_conv_block_modules): ModuleList(
      (0): ModuleList(
        (0): GraphConv()
      )
    )
    (assign_conv_last_modules): ModuleList(
      (0): GraphConv()
    )
    (assign_pred_modules): ModuleList(
      (0): Linear(in_features=140, out_features=12, bias=True)
    )
  )
)
2024-10-14 16:02:48,805 - root - INFO - epoch: 0, loss_pool: 67.15
2024-10-14 16:02:48,818 - root - INFO - save parameters to file: experiments/swat_test/epoch_0.params
2024-10-14 16:04:07,496 - root - INFO - train: torch.Size([4195, 51, 1, 30]), torch.Size([4195, 51, 1, 30])
2024-10-14 16:04:07,497 - root - INFO - val: torch.Size([1027, 51, 1, 30]), torch.Size([1027, 51, 1, 30])
2024-10-14 16:04:07,498 - root - INFO - 训练集文件data/SWAT/train_swat_gcn.npz
2024-10-14 16:04:07,520 - root - INFO - Grelen(
  (graph_learner): Graph_learner(
    (mlp1): MLP(
      (fc1): Linear(in_features=30, out_features=64, bias=True)
      (fc2): Linear(in_features=64, out_features=64, bias=True)
      (bn): BatchNorm1d(64, eps=1e-05, momentum=0.1, affine=True, track_running_stats=True)
    )
    (Wq): Linear(in_features=64, out_features=128, bias=True)
    (Wk): Linear(in_features=64, out_features=128, bias=True)
  )
  (linear1): Linear(in_features=1, out_features=64, bias=True)
  (encoder_model): ModuleList(
    (0-2): 3 x EncoderModel(
      (gcn_layers): ModuleList(
        (0): SoftPoolingGcnEncoder(
          (conv_first): GraphConv()
          (conv_block): ModuleList(
            (0): GraphConv()
          )
          (conv_last): GraphConv()
          (act): ReLU()
          (pred_model): Sequential(
            (0): Linear(in_features=384, out_features=50, bias=True)
            (1): ReLU()
            (2): Linear(in_features=50, out_features=2, bias=True)
          )
          (conv_first_after_pool): ModuleList(
            (0): GraphConv()
          )
          (conv_block_after_pool): ModuleList(
            (0): ModuleList(
              (0): GraphConv()
            )
          )
          (conv_last_after_pool): ModuleList(
            (0): GraphConv()
          )
          (assign_conv_first_modules): ModuleList(
            (0): GraphConv()
          )
          (assign_conv_block_modules): ModuleList(
            (0): ModuleList(
              (0): GraphConv()
            )
          )
          (assign_conv_last_modules): ModuleList(
            (0): GraphConv()
          )
          (assign_pred_modules): ModuleList(
            (0): Linear(in_features=140, out_features=12, bias=True)
          )
        )
      )
      (projection_layer): Linear(in_features=2, out_features=3264, bias=True)
    )
  )
  (linear_out): Linear(in_features=64, out_features=1, bias=True)
  (soft_pooling_encoder): SoftPoolingGcnEncoder(
    (conv_first): GraphConv()
    (conv_block): ModuleList(
      (0): GraphConv()
    )
    (conv_last): GraphConv()
    (act): ReLU()
    (pred_model): Sequential(
      (0): Linear(in_features=384, out_features=50, bias=True)
      (1): ReLU()
      (2): Linear(in_features=50, out_features=2, bias=True)
    )
    (conv_first_after_pool): ModuleList(
      (0): GraphConv()
    )
    (conv_block_after_pool): ModuleList(
      (0): ModuleList(
        (0): GraphConv()
      )
    )
    (conv_last_after_pool): ModuleList(
      (0): GraphConv()
    )
    (assign_conv_first_modules): ModuleList(
      (0): GraphConv()
    )
    (assign_conv_block_modules): ModuleList(
      (0): ModuleList(
        (0): GraphConv()
      )
    )
    (assign_conv_last_modules): ModuleList(
      (0): GraphConv()
    )
    (assign_pred_modules): ModuleList(
      (0): Linear(in_features=140, out_features=12, bias=True)
    )
  )
)
2024-10-14 16:04:12,996 - root - INFO - epoch: 0, loss_pool: 67.79
2024-10-14 16:04:13,009 - root - INFO - save parameters to file: experiments/swat_test/epoch_0.params
2024-10-14 16:14:20,128 - root - INFO - train: torch.Size([4195, 51, 1, 30]), torch.Size([4195, 51, 1, 30])
2024-10-14 16:14:20,128 - root - INFO - val: torch.Size([1027, 51, 1, 30]), torch.Size([1027, 51, 1, 30])
2024-10-14 16:14:20,129 - root - INFO - 训练集文件data/SWAT/train_swat_gcn.npz
2024-10-14 16:14:20,155 - root - INFO - Grelen(
  (graph_learner): Graph_learner(
    (mlp1): MLP(
      (fc1): Linear(in_features=30, out_features=64, bias=True)
      (fc2): Linear(in_features=64, out_features=64, bias=True)
      (bn): BatchNorm1d(64, eps=1e-05, momentum=0.1, affine=True, track_running_stats=True)
    )
    (Wq): Linear(in_features=64, out_features=128, bias=True)
    (Wk): Linear(in_features=64, out_features=128, bias=True)
  )
  (linear1): Linear(in_features=1, out_features=64, bias=True)
  (encoder_model): ModuleList(
    (0-2): 3 x EncoderModel(
      (gcn_layers): ModuleList(
        (0): SoftPoolingGcnEncoder(
          (conv_first): GraphConv()
          (conv_block): ModuleList(
            (0): GraphConv()
          )
          (conv_last): GraphConv()
          (act): ReLU()
          (pred_model): Sequential(
            (0): Linear(in_features=384, out_features=50, bias=True)
            (1): ReLU()
            (2): Linear(in_features=50, out_features=2, bias=True)
          )
          (conv_first_after_pool): ModuleList(
            (0): GraphConv()
          )
          (conv_block_after_pool): ModuleList(
            (0): ModuleList(
              (0): GraphConv()
            )
          )
          (conv_last_after_pool): ModuleList(
            (0): GraphConv()
          )
          (assign_conv_first_modules): ModuleList(
            (0): GraphConv()
          )
          (assign_conv_block_modules): ModuleList(
            (0): ModuleList(
              (0): GraphConv()
            )
          )
          (assign_conv_last_modules): ModuleList(
            (0): GraphConv()
          )
          (assign_pred_modules): ModuleList(
            (0): Linear(in_features=140, out_features=12, bias=True)
          )
        )
      )
      (projection_layer): Linear(in_features=2, out_features=3264, bias=True)
    )
  )
  (linear_out): Linear(in_features=64, out_features=1, bias=True)
  (soft_pooling_encoder): SoftPoolingGcnEncoder(
    (conv_first): GraphConv()
    (conv_block): ModuleList(
      (0): GraphConv()
    )
    (conv_last): GraphConv()
    (act): ReLU()
    (pred_model): Sequential(
      (0): Linear(in_features=384, out_features=50, bias=True)
      (1): ReLU()
      (2): Linear(in_features=50, out_features=2, bias=True)
    )
    (conv_first_after_pool): ModuleList(
      (0): GraphConv()
    )
    (conv_block_after_pool): ModuleList(
      (0): ModuleList(
        (0): GraphConv()
      )
    )
    (conv_last_after_pool): ModuleList(
      (0): GraphConv()
    )
    (assign_conv_first_modules): ModuleList(
      (0): GraphConv()
    )
    (assign_conv_block_modules): ModuleList(
      (0): ModuleList(
        (0): GraphConv()
      )
    )
    (assign_conv_last_modules): ModuleList(
      (0): GraphConv()
    )
    (assign_pred_modules): ModuleList(
      (0): Linear(in_features=140, out_features=12, bias=True)
    )
  )
)
2024-10-14 16:14:57,903 - root - INFO - train: torch.Size([4195, 51, 1, 30]), torch.Size([4195, 51, 1, 30])
2024-10-14 16:14:57,903 - root - INFO - val: torch.Size([1027, 51, 1, 30]), torch.Size([1027, 51, 1, 30])
2024-10-14 16:14:57,904 - root - INFO - 训练集文件data/SWAT/train_swat_gcn.npz
2024-10-14 16:14:57,935 - root - INFO - Grelen(
  (graph_learner): Graph_learner(
    (mlp1): MLP(
      (fc1): Linear(in_features=30, out_features=64, bias=True)
      (fc2): Linear(in_features=64, out_features=64, bias=True)
      (bn): BatchNorm1d(64, eps=1e-05, momentum=0.1, affine=True, track_running_stats=True)
    )
    (Wq): Linear(in_features=64, out_features=128, bias=True)
    (Wk): Linear(in_features=64, out_features=128, bias=True)
  )
  (linear1): Linear(in_features=1, out_features=64, bias=True)
  (encoder_model): ModuleList(
    (0-2): 3 x EncoderModel(
      (gcn_layers): ModuleList(
        (0): SoftPoolingGcnEncoder(
          (conv_first): GraphConv()
          (conv_block): ModuleList(
            (0): GraphConv()
          )
          (conv_last): GraphConv()
          (act): ReLU()
          (pred_model): Sequential(
            (0): Linear(in_features=384, out_features=50, bias=True)
            (1): ReLU()
            (2): Linear(in_features=50, out_features=2, bias=True)
          )
          (conv_first_after_pool): ModuleList(
            (0): GraphConv()
          )
          (conv_block_after_pool): ModuleList(
            (0): ModuleList(
              (0): GraphConv()
            )
          )
          (conv_last_after_pool): ModuleList(
            (0): GraphConv()
          )
          (assign_conv_first_modules): ModuleList(
            (0): GraphConv()
          )
          (assign_conv_block_modules): ModuleList(
            (0): ModuleList(
              (0): GraphConv()
            )
          )
          (assign_conv_last_modules): ModuleList(
            (0): GraphConv()
          )
          (assign_pred_modules): ModuleList(
            (0): Linear(in_features=140, out_features=12, bias=True)
          )
        )
      )
      (projection_layer): Linear(in_features=2, out_features=3264, bias=True)
    )
  )
  (linear_out): Linear(in_features=64, out_features=1, bias=True)
  (soft_pooling_encoder): SoftPoolingGcnEncoder(
    (conv_first): GraphConv()
    (conv_block): ModuleList(
      (0): GraphConv()
    )
    (conv_last): GraphConv()
    (act): ReLU()
    (pred_model): Sequential(
      (0): Linear(in_features=384, out_features=50, bias=True)
      (1): ReLU()
      (2): Linear(in_features=50, out_features=2, bias=True)
    )
    (conv_first_after_pool): ModuleList(
      (0): GraphConv()
    )
    (conv_block_after_pool): ModuleList(
      (0): ModuleList(
        (0): GraphConv()
      )
    )
    (conv_last_after_pool): ModuleList(
      (0): GraphConv()
    )
    (assign_conv_first_modules): ModuleList(
      (0): GraphConv()
    )
    (assign_conv_block_modules): ModuleList(
      (0): ModuleList(
        (0): GraphConv()
      )
    )
    (assign_conv_last_modules): ModuleList(
      (0): GraphConv()
    )
    (assign_pred_modules): ModuleList(
      (0): Linear(in_features=140, out_features=12, bias=True)
    )
  )
)
2024-10-14 16:15:03,449 - root - INFO - epoch: 0, diffpool loss: 69.31
2024-10-14 16:15:03,462 - root - INFO - save parameters to file: experiments/swat_test/epoch_0.params
2024-10-14 16:16:37,235 - root - INFO - train: torch.Size([4195, 51, 1, 30]), torch.Size([4195, 51, 1, 30])
2024-10-14 16:16:37,236 - root - INFO - val: torch.Size([1027, 51, 1, 30]), torch.Size([1027, 51, 1, 30])
2024-10-14 16:16:37,237 - root - INFO - 训练集文件data/SWAT/train_swat_gcn.npz
2024-10-14 16:16:37,259 - root - INFO - Grelen(
  (graph_learner): Graph_learner(
    (mlp1): MLP(
      (fc1): Linear(in_features=30, out_features=64, bias=True)
      (fc2): Linear(in_features=64, out_features=64, bias=True)
      (bn): BatchNorm1d(64, eps=1e-05, momentum=0.1, affine=True, track_running_stats=True)
    )
    (Wq): Linear(in_features=64, out_features=128, bias=True)
    (Wk): Linear(in_features=64, out_features=128, bias=True)
  )
  (linear1): Linear(in_features=1, out_features=64, bias=True)
  (encoder_model): ModuleList(
    (0-2): 3 x EncoderModel(
      (gcn_layers): ModuleList(
        (0): SoftPoolingGcnEncoder(
          (conv_first): GraphConv()
          (conv_block): ModuleList(
            (0): GraphConv()
          )
          (conv_last): GraphConv()
          (act): ReLU()
          (pred_model): Sequential(
            (0): Linear(in_features=384, out_features=50, bias=True)
            (1): ReLU()
            (2): Linear(in_features=50, out_features=2, bias=True)
          )
          (conv_first_after_pool): ModuleList(
            (0): GraphConv()
          )
          (conv_block_after_pool): ModuleList(
            (0): ModuleList(
              (0): GraphConv()
            )
          )
          (conv_last_after_pool): ModuleList(
            (0): GraphConv()
          )
          (assign_conv_first_modules): ModuleList(
            (0): GraphConv()
          )
          (assign_conv_block_modules): ModuleList(
            (0): ModuleList(
              (0): GraphConv()
            )
          )
          (assign_conv_last_modules): ModuleList(
            (0): GraphConv()
          )
          (assign_pred_modules): ModuleList(
            (0): Linear(in_features=140, out_features=12, bias=True)
          )
        )
      )
      (projection_layer): Linear(in_features=2, out_features=3264, bias=True)
    )
  )
  (linear_out): Linear(in_features=64, out_features=1, bias=True)
  (soft_pooling_encoder): SoftPoolingGcnEncoder(
    (conv_first): GraphConv()
    (conv_block): ModuleList(
      (0): GraphConv()
    )
    (conv_last): GraphConv()
    (act): ReLU()
    (pred_model): Sequential(
      (0): Linear(in_features=384, out_features=50, bias=True)
      (1): ReLU()
      (2): Linear(in_features=50, out_features=2, bias=True)
    )
    (conv_first_after_pool): ModuleList(
      (0): GraphConv()
    )
    (conv_block_after_pool): ModuleList(
      (0): ModuleList(
        (0): GraphConv()
      )
    )
    (conv_last_after_pool): ModuleList(
      (0): GraphConv()
    )
    (assign_conv_first_modules): ModuleList(
      (0): GraphConv()
    )
    (assign_conv_block_modules): ModuleList(
      (0): ModuleList(
        (0): GraphConv()
      )
    )
    (assign_conv_last_modules): ModuleList(
      (0): GraphConv()
    )
    (assign_pred_modules): ModuleList(
      (0): Linear(in_features=140, out_features=12, bias=True)
    )
  )
)
2024-10-14 16:16:42,602 - root - INFO - epoch: 0, diffpool loss: 67.85
2024-10-14 16:16:42,614 - root - INFO - save parameters to file: experiments/swat_test/epoch_0.params
2024-10-14 16:20:21,424 - root - INFO - train: torch.Size([4195, 51, 1, 30]), torch.Size([4195, 51, 1, 30])
2024-10-14 16:20:21,424 - root - INFO - val: torch.Size([1027, 51, 1, 30]), torch.Size([1027, 51, 1, 30])
2024-10-14 16:20:21,425 - root - INFO - 训练集文件data/SWAT/train_swat_gcn.npz
2024-10-14 16:20:21,448 - root - INFO - Grelen(
  (graph_learner): Graph_learner(
    (mlp1): MLP(
      (fc1): Linear(in_features=30, out_features=64, bias=True)
      (fc2): Linear(in_features=64, out_features=64, bias=True)
      (bn): BatchNorm1d(64, eps=1e-05, momentum=0.1, affine=True, track_running_stats=True)
    )
    (Wq): Linear(in_features=64, out_features=128, bias=True)
    (Wk): Linear(in_features=64, out_features=128, bias=True)
  )
  (linear1): Linear(in_features=1, out_features=64, bias=True)
  (encoder_model): ModuleList(
    (0-2): 3 x EncoderModel(
      (gcn_layers): ModuleList(
        (0): SoftPoolingGcnEncoder(
          (conv_first): GraphConv()
          (conv_block): ModuleList(
            (0): GraphConv()
          )
          (conv_last): GraphConv()
          (act): ReLU()
          (pred_model): Sequential(
            (0): Linear(in_features=384, out_features=50, bias=True)
            (1): ReLU()
            (2): Linear(in_features=50, out_features=2, bias=True)
          )
          (conv_first_after_pool): ModuleList(
            (0): GraphConv()
          )
          (conv_block_after_pool): ModuleList(
            (0): ModuleList(
              (0): GraphConv()
            )
          )
          (conv_last_after_pool): ModuleList(
            (0): GraphConv()
          )
          (assign_conv_first_modules): ModuleList(
            (0): GraphConv()
          )
          (assign_conv_block_modules): ModuleList(
            (0): ModuleList(
              (0): GraphConv()
            )
          )
          (assign_conv_last_modules): ModuleList(
            (0): GraphConv()
          )
          (assign_pred_modules): ModuleList(
            (0): Linear(in_features=140, out_features=12, bias=True)
          )
        )
      )
      (projection_layer): Linear(in_features=2, out_features=3264, bias=True)
    )
  )
  (linear_out): Linear(in_features=64, out_features=1, bias=True)
  (soft_pooling_encoder): SoftPoolingGcnEncoder(
    (conv_first): GraphConv()
    (conv_block): ModuleList(
      (0): GraphConv()
    )
    (conv_last): GraphConv()
    (act): ReLU()
    (pred_model): Sequential(
      (0): Linear(in_features=384, out_features=50, bias=True)
      (1): ReLU()
      (2): Linear(in_features=50, out_features=2, bias=True)
    )
    (conv_first_after_pool): ModuleList(
      (0): GraphConv()
    )
    (conv_block_after_pool): ModuleList(
      (0): ModuleList(
        (0): GraphConv()
      )
    )
    (conv_last_after_pool): ModuleList(
      (0): GraphConv()
    )
    (assign_conv_first_modules): ModuleList(
      (0): GraphConv()
    )
    (assign_conv_block_modules): ModuleList(
      (0): ModuleList(
        (0): GraphConv()
      )
    )
    (assign_conv_last_modules): ModuleList(
      (0): GraphConv()
    )
    (assign_pred_modules): ModuleList(
      (0): Linear(in_features=140, out_features=12, bias=True)
    )
  )
)
2024-10-14 16:20:26,940 - root - INFO - epoch: 0, diffpool loss: 67.44
2024-10-14 16:20:26,953 - root - INFO - save parameters to file: experiments/swat_test/epoch_0.params
2024-10-14 16:23:18,820 - root - INFO - train: torch.Size([4195, 51, 1, 30]), torch.Size([4195, 51, 1, 30])
2024-10-14 16:23:18,820 - root - INFO - val: torch.Size([1027, 51, 1, 30]), torch.Size([1027, 51, 1, 30])
2024-10-14 16:23:18,821 - root - INFO - 训练集文件data/SWAT/train_swat_gcn.npz
2024-10-14 16:23:18,842 - root - INFO - Grelen(
  (graph_learner): Graph_learner(
    (mlp1): MLP(
      (fc1): Linear(in_features=30, out_features=64, bias=True)
      (fc2): Linear(in_features=64, out_features=64, bias=True)
      (bn): BatchNorm1d(64, eps=1e-05, momentum=0.1, affine=True, track_running_stats=True)
    )
    (Wq): Linear(in_features=64, out_features=128, bias=True)
    (Wk): Linear(in_features=64, out_features=128, bias=True)
  )
  (linear1): Linear(in_features=1, out_features=64, bias=True)
  (encoder_model): ModuleList(
    (0-2): 3 x EncoderModel(
      (gcn_layers): ModuleList(
        (0): SoftPoolingGcnEncoder(
          (conv_first): GraphConv()
          (conv_block): ModuleList(
            (0): GraphConv()
          )
          (conv_last): GraphConv()
          (act): ReLU()
          (pred_model): Sequential(
            (0): Linear(in_features=384, out_features=50, bias=True)
            (1): ReLU()
            (2): Linear(in_features=50, out_features=2, bias=True)
          )
          (conv_first_after_pool): ModuleList(
            (0): GraphConv()
          )
          (conv_block_after_pool): ModuleList(
            (0): ModuleList(
              (0): GraphConv()
            )
          )
          (conv_last_after_pool): ModuleList(
            (0): GraphConv()
          )
          (assign_conv_first_modules): ModuleList(
            (0): GraphConv()
          )
          (assign_conv_block_modules): ModuleList(
            (0): ModuleList(
              (0): GraphConv()
            )
          )
          (assign_conv_last_modules): ModuleList(
            (0): GraphConv()
          )
          (assign_pred_modules): ModuleList(
            (0): Linear(in_features=140, out_features=12, bias=True)
          )
        )
      )
      (projection_layer): Linear(in_features=2, out_features=3264, bias=True)
    )
  )
  (linear_out): Linear(in_features=64, out_features=1, bias=True)
  (soft_pooling_encoder): SoftPoolingGcnEncoder(
    (conv_first): GraphConv()
    (conv_block): ModuleList(
      (0): GraphConv()
    )
    (conv_last): GraphConv()
    (act): ReLU()
    (pred_model): Sequential(
      (0): Linear(in_features=384, out_features=50, bias=True)
      (1): ReLU()
      (2): Linear(in_features=50, out_features=2, bias=True)
    )
    (conv_first_after_pool): ModuleList(
      (0): GraphConv()
    )
    (conv_block_after_pool): ModuleList(
      (0): ModuleList(
        (0): GraphConv()
      )
    )
    (conv_last_after_pool): ModuleList(
      (0): GraphConv()
    )
    (assign_conv_first_modules): ModuleList(
      (0): GraphConv()
    )
    (assign_conv_block_modules): ModuleList(
      (0): ModuleList(
        (0): GraphConv()
      )
    )
    (assign_conv_last_modules): ModuleList(
      (0): GraphConv()
    )
    (assign_pred_modules): ModuleList(
      (0): Linear(in_features=140, out_features=12, bias=True)
    )
  )
)
2024-10-14 16:25:10,025 - root - INFO - train: torch.Size([4195, 51, 1, 30]), torch.Size([4195, 51, 1, 30])
2024-10-14 16:25:10,025 - root - INFO - val: torch.Size([1027, 51, 1, 30]), torch.Size([1027, 51, 1, 30])
2024-10-14 16:25:10,026 - root - INFO - 训练集文件data/SWAT/train_swat_gcn.npz
2024-10-14 16:25:10,048 - root - INFO - Grelen(
  (graph_learner): Graph_learner(
    (mlp1): MLP(
      (fc1): Linear(in_features=30, out_features=64, bias=True)
      (fc2): Linear(in_features=64, out_features=64, bias=True)
      (bn): BatchNorm1d(64, eps=1e-05, momentum=0.1, affine=True, track_running_stats=True)
    )
    (Wq): Linear(in_features=64, out_features=128, bias=True)
    (Wk): Linear(in_features=64, out_features=128, bias=True)
  )
  (linear1): Linear(in_features=1, out_features=64, bias=True)
  (encoder_model): ModuleList(
    (0-2): 3 x EncoderModel(
      (gcn_layers): ModuleList(
        (0): SoftPoolingGcnEncoder(
          (conv_first): GraphConv()
          (conv_block): ModuleList(
            (0): GraphConv()
          )
          (conv_last): GraphConv()
          (act): ReLU()
          (pred_model): Sequential(
            (0): Linear(in_features=384, out_features=50, bias=True)
            (1): ReLU()
            (2): Linear(in_features=50, out_features=2, bias=True)
          )
          (conv_first_after_pool): ModuleList(
            (0): GraphConv()
          )
          (conv_block_after_pool): ModuleList(
            (0): ModuleList(
              (0): GraphConv()
            )
          )
          (conv_last_after_pool): ModuleList(
            (0): GraphConv()
          )
          (assign_conv_first_modules): ModuleList(
            (0): GraphConv()
          )
          (assign_conv_block_modules): ModuleList(
            (0): ModuleList(
              (0): GraphConv()
            )
          )
          (assign_conv_last_modules): ModuleList(
            (0): GraphConv()
          )
          (assign_pred_modules): ModuleList(
            (0): Linear(in_features=140, out_features=12, bias=True)
          )
        )
      )
      (projection_layer): Linear(in_features=2, out_features=3264, bias=True)
    )
  )
  (linear_out): Linear(in_features=64, out_features=1, bias=True)
  (soft_pooling_encoder): SoftPoolingGcnEncoder(
    (conv_first): GraphConv()
    (conv_block): ModuleList(
      (0): GraphConv()
    )
    (conv_last): GraphConv()
    (act): ReLU()
    (pred_model): Sequential(
      (0): Linear(in_features=384, out_features=50, bias=True)
      (1): ReLU()
      (2): Linear(in_features=50, out_features=2, bias=True)
    )
    (conv_first_after_pool): ModuleList(
      (0): GraphConv()
    )
    (conv_block_after_pool): ModuleList(
      (0): ModuleList(
        (0): GraphConv()
      )
    )
    (conv_last_after_pool): ModuleList(
      (0): GraphConv()
    )
    (assign_conv_first_modules): ModuleList(
      (0): GraphConv()
    )
    (assign_conv_block_modules): ModuleList(
      (0): ModuleList(
        (0): GraphConv()
      )
    )
    (assign_conv_last_modules): ModuleList(
      (0): GraphConv()
    )
    (assign_pred_modules): ModuleList(
      (0): Linear(in_features=140, out_features=12, bias=True)
    )
  )
)
2024-10-14 16:25:15,478 - root - INFO - epoch: 0, diffpool loss: 68.15
2024-10-14 16:25:15,490 - root - INFO - save parameters to file: experiments/swat_test/epoch_0.params
2024-10-14 16:32:04,635 - root - INFO - train: torch.Size([4195, 51, 1, 30]), torch.Size([4195, 51, 1, 30])
2024-10-14 16:32:04,635 - root - INFO - val: torch.Size([1027, 51, 1, 30]), torch.Size([1027, 51, 1, 30])
2024-10-14 16:32:04,636 - root - INFO - 训练集文件data/SWAT/train_swat_gcn.npz
2024-10-14 16:32:04,659 - root - INFO - Grelen(
  (graph_learner): Graph_learner(
    (mlp1): MLP(
      (fc1): Linear(in_features=30, out_features=64, bias=True)
      (fc2): Linear(in_features=64, out_features=64, bias=True)
      (bn): BatchNorm1d(64, eps=1e-05, momentum=0.1, affine=True, track_running_stats=True)
    )
    (Wq): Linear(in_features=64, out_features=128, bias=True)
    (Wk): Linear(in_features=64, out_features=128, bias=True)
  )
  (linear1): Linear(in_features=1, out_features=64, bias=True)
  (encoder_model): ModuleList(
    (0-2): 3 x EncoderModel(
      (gcn_layers): ModuleList(
        (0): SoftPoolingGcnEncoder(
          (conv_first): GraphConv()
          (conv_block): ModuleList(
            (0): GraphConv()
          )
          (conv_last): GraphConv()
          (act): ReLU()
          (pred_model): Sequential(
            (0): Linear(in_features=384, out_features=50, bias=True)
            (1): ReLU()
            (2): Linear(in_features=50, out_features=2, bias=True)
          )
          (conv_first_after_pool): ModuleList(
            (0): GraphConv()
          )
          (conv_block_after_pool): ModuleList(
            (0): ModuleList(
              (0): GraphConv()
            )
          )
          (conv_last_after_pool): ModuleList(
            (0): GraphConv()
          )
          (assign_conv_first_modules): ModuleList(
            (0): GraphConv()
          )
          (assign_conv_block_modules): ModuleList(
            (0): ModuleList(
              (0): GraphConv()
            )
          )
          (assign_conv_last_modules): ModuleList(
            (0): GraphConv()
          )
          (assign_pred_modules): ModuleList(
            (0): Linear(in_features=140, out_features=12, bias=True)
          )
        )
      )
      (projection_layer): Linear(in_features=2, out_features=3264, bias=True)
    )
  )
  (linear_out): Linear(in_features=64, out_features=1, bias=True)
  (soft_pooling_encoder): SoftPoolingGcnEncoder(
    (conv_first): GraphConv()
    (conv_block): ModuleList(
      (0): GraphConv()
    )
    (conv_last): GraphConv()
    (act): ReLU()
    (pred_model): Sequential(
      (0): Linear(in_features=384, out_features=50, bias=True)
      (1): ReLU()
      (2): Linear(in_features=50, out_features=2, bias=True)
    )
    (conv_first_after_pool): ModuleList(
      (0): GraphConv()
    )
    (conv_block_after_pool): ModuleList(
      (0): ModuleList(
        (0): GraphConv()
      )
    )
    (conv_last_after_pool): ModuleList(
      (0): GraphConv()
    )
    (assign_conv_first_modules): ModuleList(
      (0): GraphConv()
    )
    (assign_conv_block_modules): ModuleList(
      (0): ModuleList(
        (0): GraphConv()
      )
    )
    (assign_conv_last_modules): ModuleList(
      (0): GraphConv()
    )
    (assign_pred_modules): ModuleList(
      (0): Linear(in_features=140, out_features=12, bias=True)
    )
  )
)
2024-10-14 16:33:11,717 - root - INFO - train: torch.Size([4195, 51, 1, 30]), torch.Size([4195, 51, 1, 30])
2024-10-14 16:33:11,718 - root - INFO - val: torch.Size([1027, 51, 1, 30]), torch.Size([1027, 51, 1, 30])
2024-10-14 16:33:11,719 - root - INFO - 训练集文件data/SWAT/train_swat_gcn.npz
2024-10-14 16:33:11,741 - root - INFO - Grelen(
  (graph_learner): Graph_learner(
    (mlp1): MLP(
      (fc1): Linear(in_features=30, out_features=64, bias=True)
      (fc2): Linear(in_features=64, out_features=64, bias=True)
      (bn): BatchNorm1d(64, eps=1e-05, momentum=0.1, affine=True, track_running_stats=True)
    )
    (Wq): Linear(in_features=64, out_features=128, bias=True)
    (Wk): Linear(in_features=64, out_features=128, bias=True)
  )
  (linear1): Linear(in_features=1, out_features=64, bias=True)
  (encoder_model): ModuleList(
    (0-2): 3 x EncoderModel(
      (gcn_layers): ModuleList(
        (0): SoftPoolingGcnEncoder(
          (conv_first): GraphConv()
          (conv_block): ModuleList(
            (0): GraphConv()
          )
          (conv_last): GraphConv()
          (act): ReLU()
          (pred_model): Sequential(
            (0): Linear(in_features=384, out_features=50, bias=True)
            (1): ReLU()
            (2): Linear(in_features=50, out_features=2, bias=True)
          )
          (conv_first_after_pool): ModuleList(
            (0): GraphConv()
          )
          (conv_block_after_pool): ModuleList(
            (0): ModuleList(
              (0): GraphConv()
            )
          )
          (conv_last_after_pool): ModuleList(
            (0): GraphConv()
          )
          (assign_conv_first_modules): ModuleList(
            (0): GraphConv()
          )
          (assign_conv_block_modules): ModuleList(
            (0): ModuleList(
              (0): GraphConv()
            )
          )
          (assign_conv_last_modules): ModuleList(
            (0): GraphConv()
          )
          (assign_pred_modules): ModuleList(
            (0): Linear(in_features=140, out_features=12, bias=True)
          )
        )
      )
      (projection_layer): Linear(in_features=2, out_features=3264, bias=True)
    )
  )
  (linear_out): Linear(in_features=64, out_features=1, bias=True)
  (soft_pooling_encoder): SoftPoolingGcnEncoder(
    (conv_first): GraphConv()
    (conv_block): ModuleList(
      (0): GraphConv()
    )
    (conv_last): GraphConv()
    (act): ReLU()
    (pred_model): Sequential(
      (0): Linear(in_features=384, out_features=50, bias=True)
      (1): ReLU()
      (2): Linear(in_features=50, out_features=2, bias=True)
    )
    (conv_first_after_pool): ModuleList(
      (0): GraphConv()
    )
    (conv_block_after_pool): ModuleList(
      (0): ModuleList(
        (0): GraphConv()
      )
    )
    (conv_last_after_pool): ModuleList(
      (0): GraphConv()
    )
    (assign_conv_first_modules): ModuleList(
      (0): GraphConv()
    )
    (assign_conv_block_modules): ModuleList(
      (0): ModuleList(
        (0): GraphConv()
      )
    )
    (assign_conv_last_modules): ModuleList(
      (0): GraphConv()
    )
    (assign_pred_modules): ModuleList(
      (0): Linear(in_features=140, out_features=12, bias=True)
    )
  )
)
2024-10-14 16:33:17,212 - root - INFO - epoch: 0, diffpool loss: 67.64
2024-10-14 16:33:17,225 - root - INFO - save parameters to file: experiments/swat_test/epoch_0.params
2024-10-14 16:33:53,239 - root - INFO - epoch: 0, diffpool loss: 67.76
2024-10-14 16:33:53,239 - root - INFO - epoch:0,elapsed time:41.497100591659546,total time:41.497100591659546
…
